AndroidApp/app/src/main/ml/converted_model.tflite (tflite, 464496 bytes, 8 tensors)

sequential_1/conv2d/StatefulPartitionedCall/StatefulPartitionedCall/Conv2D/ReadVariableOp f4 [1, 75, 1, 6]
00000000: 2738 79bc 34e9 df3d bed7 9abe 508a 36bd
00000010: 2b9c 98bd 0df0 d4bc 0f3f 32bc 2730 da3d
00000020: 1ee6 0dbd b5d9 1dbc 0094 65bd a48f a8bd
00000030: 6123 183d b3de 003e 481b 86be ffac 85be
00000040: 7290 e0bc 74c3 c53d 4100 193e c926 983c
00000050: 9b82 0cbd a3a6 a3bd d08a 17be caae 263d
00000060: 1159 c33c 30f5 243e 244e d1bc ec25 9f3d
00000070: 0b58 83bd 2e0b e2bd f373 27bd 207a babc
00000080: e9bc 72be 0420 f93d 778a 823d 4083 a03d
00000090: f875 9dbb 178d c4bc 1367 8abe 1833 163e
000000a0: 0a07 7bbd 49a6 7f3d 6d64 a43d db64 27bd
000000b0: a622 4abe f1bc c4bd a80f 28bc b3c3 233e
000000c0: cc96 b8bd 5521 41bc 793e 9abd d987 973d
000000d0: 4b12 d13d e0ca 523d f69f c03c 3a1e ecbd
000000e0: d552 3f3e 9a47 123d cb14 6f3d a768 bfbc
000000f0: 2e3a d7bb cdf4 8cbd 3555 ef3d e9ed 7bbd
00000100: dd67 51bd 9064 f6bd 2941 c73d d1af 71bd
00000110: b285 0bbe 85ef f6bd 966d 84bd cde8 a13d
00000120: 933a b0bd a7cb 053d c5ae 823d 1ea9 e6bd
00000130: 3864 08be 73a2 12bc b1b8 a9bd 3132 e33d
00000140: 0e8e 02be 2f76 b83c 046d 4abe bb95 7ebc
00000150: 2059 793d 610a 083d a843 aab9 ca85 1a3e
00000160: 0600 54be 3941 a83c e506 513d 68d8 77bd
00000170: 9a41 853d 768e 993d 746d 1cbe 4341 a33d
00000180: b015 303d a32c c03c aa84 b13c 3201 933c
00000190: 7467 42be 59be 023d 63ca 9cbd ece7 ba3d
000001a0: c96f 603c 324b bb38 7d4f c7bd 03b7 e2bb
000001b0: e25d f5bc a900 f6bd bf3d bdbd 3292 1bbd
000001c0: 79fe 0b3b c641 a6bd deab da3c 5554 c4bd
000001d0: 0b8c e73c 2d91 2a3e ed4f b3bd 509e bbbd
000001e0: 4e68 5cbd c509 db3d 655a 7ebd f3f0 93bd
000001f0: 4df6 053d e021 a3bd 8e32 313d 6ffb a13d
00000200: 71d8 753c cf91 18be 2912 a8bd 4727 e9b8
00000210: b8de 843d 32e4 d2bc a535 71bd ca05 0d3d
00000220: 291b aabd c2c8 71bd 0f20 063c 7325 f83c
00000230: 5291 8cbd 1943 b53d d25e bbbc b27c 4e3a
00000240: c47b b03c 9274 ff3c bdb9 a7bd b80f 083d
00000250: 1eea e93c 2d53 9fbd d7a7 90bd f157 613c
00000260: e274 f13c d012 5f3c 69ea 8a3c 498e be3d
00000270: ef7d fcbc 0ed8 5ebc 0aaf 81bd 509b 673d
00000280: fcdb 4c3d e8ef 08bd 44d9 3d3d 07ce acbd
00000290: ce0e 4d3c 2e42 13be c08f ebbb a92d e63b
000002a0: 246c 84bc 3e2b 9ebd 4e48 c63d cdc1 2cbd
000002b0: 36ad 06bd 3701 20be 9ef8 ec3c 4210 e83d
000002c0: edf0 1c3d 5685 303e 1089 bbbd 445b 0a3d
000002d0: fce2 853c 0e44 133d e582 01be f1d3 8c3b
000002e0: 2aed 23be 36da 393c 76ae 2abe 0965 c33d
000002f0: 9f7f 173c 0fa2 3ebe 1ebc dcbb fdeb bf3d
00000300: f149 be3d 0ccf 3b3d d40a 0cbc be92 173d
00000310: 1b2b 293d d903 b83d 0b40 303e fab3 2a3d
00000320: 1e08 15bb 5a88 973c 097f 653c fa46 0f3d
00000330: 9bd0 0e3e 9a91 aa3d 6eee 0fbd cf3d 03be
00000340: eb55 abbb 9a37 4b3e bf5b a93d 7c66 1f3d
00000350: 5b14 6dbc e4f4 c43d 625f 943d 1a16 ee3d
00000360: df5d 13bd a63b bbbd af2d 34bd 922c 40bd
00000370: f3d6 f63c 9f52 5dbd 0114 2bbd 681c e23d
00000380: f54a 7ebc 2928 333c b694 18be 01c1 36be
00000390: 01b3 503c f5c4 ff3c 6f10 11bc e67c 4d3d
000003a0: cc00 1b3d 5fb8 13be a18b 153e 3364 913d
000003b0: 890c 873d c775 c83c 041d 2b3e 0af6 3d3e
000003c0: c0dc cf3c 55a7 da3d f3e2 703d dc7a f3bd
000003d0: dd0e 36bd c657 023e 5b18 09bd 6878 003e
000003e0: 2da4 c6bd 9fc4 c83d afc9 983d cc67 02be
000003f0: 3948 63bd e825 c7bd d39e de3d debf 76bc
-0.015211142 0.10933152 -0.30242723 -0.0445655 -0.07451662 -0.025993371 -0.010879292 0.106537156
-0.034643285 -0.009634425 -0.056049347 -0.08230522 0.037143115 0.12584953 -0.2619269 -0.26108548
-0.027412627 0.0965642 0.14941503 0.018573182 -0.034304243 -0.07990768 -0.14799047 0.040694036
0.023846181 0.16109157 -0.025549956 0.07770905 -0.06413277 -0.110372886 -0.040882062 -0.022763312
-0.23704876 0.121643096 0.06374066 0.07837534 -0.0048053227 -0.023993058 -0.27031764 0.14667928
-0.06128601 0.06241444 0.08026967 -0.040867668 -0.1973978 -0.0960635 -0.010257639 0.15992622
-0.09013137 -0.011787732 -0.07531447 0.07398958 0.10208567 0.051463008 0.023513775 -0.11529203
0.18683942 0.035712816 0.05836944 -0.023365332 -0.006568215 -0.068826295 0.11686174 -0.061506186
-0.051124442 -0.120308995 0.09729225 -0.059005562 -0.1362522 -0.120574035 -0.06466214 0.07905731
-0.08604922 0.03266492 0.06380991 -0.11262725 -0.1331948 -0.008949864 -0.0828718 0.110935576
-0.12749502 0.022517292 -0.19768149 -0.015538628 0.06087601 0.033213023 -0.00032475335 0.15090099
-0.20703134 0.020538913 0.051031966 -0.060509115 0.06506653 0.074978754 -0.15276128 0.07971432
0.042989433 0.023458784 0.021669704 0.017944906 -0.18984777 0.03191981 -0.0765579 0.09126267
0.013698527 8.930861e-05 -0.09731958 -0.0069187894 -0.029951993 -0.12011845 -0.09240293 -0.03798122
0.0021361394 -0.08118014 0.02669328 -0.095863976 0.02826502 0.16656943 -0.08755479 -0.09161055
-0.05381041 0.10695223 -0.062097926 -0.07223692 0.032705594 -0.079654455 0.043261103 0.07909285
0.015005217 -0.14899372 -0.08206589 -0.00011117622 0.06487793 -0.025743578 -0.05888905 0.03442935
-0.08305962 -0.05902935 0.008186354 0.030291295 -0.06863655 0.088506885 -0.022872362 0.00078768574
0.021543391 0.031183515 -0.08189724 0.033218116 0.028554019 -0.077795364 -0.07063263 0.013753877
0.02947468 0.013615325 0.016957479 0.093044825 -0.030821769 -0.013601316 -0.06332214 0.056544602
0.05001448 -0.033431917 0.04634978 -0.08437734 0.012515737 -0.14380714 -0.007188767 0.007024486
-0.016164847 -0.077230915 0.0968176 -0.04217701 -0.03288003 -0.15625463 0.028927144 0.11331226
0.038315702 0.17238364 -0.09157002 0.033778444 0.016343586 0.035953574 -0.12647589 0.0042977263
-0.1600844 0.011343529 -0.16668114 0.09540755 0.009246736 -0.18616508 -0.0067362925 0.09371183
0.09291447 0.045851752 -0.0085475035 0.03700518 0.041300874 0.08985109 0.1721193 0.041675545
-0.0022740434 0.018497635 0.014007338 0.034979798 0.13946764 0.083285525 -0.035139494 -0.12816547
-0.005228748 0.19845429 0.08269452 0.038916096 -0.014470185 0.09617022 0.07244755 0.11625309
-0.035978194 -0.091422364 -0.04398888 -0.046917506 0.030131793 -0.05403387 -0.041767124 0.11040574
-0.015520801 0.010934868 -0.14900479 -0.17847063 0.01273799 0.031221846 -0.008854016 0.05016794
0.037842557 -0.144258 0.14604045 0.070991896 0.06594188 0.024470223 0.16710287 0.18550888
0.025373816 0.10676447 0.058810186 -0.11888668 -0.04444777 0.12728795 -0.033470493 0.12545931
-0.09699283 0.098031275 0.07460343 -0.12734908 -0.0554888 -0.09724027 0.10870137 -0.015060393

sequential_1/conv2d/StatefulPartitionedCall/StatefulPartitionedCall/Conv2D_bias f4 [6]
00000000: 1c28 2d3b 6d60 1a3b 0931 063d acd2 e4ba
00000010: 1e55 8a3d 739d 86bc
0.0026421612 0.002355601 0.032761607 -0.0017457805 0.06754516 -0.0164325

sequential_1/dense_3/StatefulPartitionedCall/StatefulPartitionedCall/MatMul/ReadVariableOp/transpose i1 [1024, 432] scale=0.002530473 zero_point=0
00000000: e6f9 12ec fb15 ed04 f0fa 11fa ea13 f00d
00000010: f20e 0f12 fb03 f4f1 01f7 f4e6 15e8 0814
00000020: 08ff 0b01 0af2 f200 f614 05eb 0601 f902
00000030: 090e 04f6 fcfd 05ec 0317 ed07 0705 fa14
00000040: 14f5 fe03 f9f0 fdf4 f308 0e15 0dfb ec14
00000050: e5fb 0bf6 0105 1600 eaf7 f8f0 f70b 00e8
00000060: 080e 1713 0d01 0409 01ed f803 e8f0 e414
00000070: 1617 eaeb f709 e9f2 02e6 030a ea0d f6eb
00000080: 09e4 e804 140f f1f5 13fe 06ef 14f7 03f1
00000090: ee12 f008 fc02 eb06 0a13 f4ec f80c 0d0d
000000a0: ec09 e316 0a0d fbe4 f503 07ea 13e5 04e7
000000b0: f40f 16fa 08f7 0304 eefb eef4 e605 0a01
000000c0: f9fd e7e5 0603 e9e9 10f1 f4f3 f5e9 01f9
000000d0: e60c 03e6 0706 0ef0 e912 0012 e7f8 ec10
000000e0: f816 0709 e9ee 0be7 12fd e7f6 f508 f7e8
000000f0: 070e 13f8 10f5 1607 100b e615 1607 1411
-0.0657923 -0.017713312 0.045548514 -0.050609462 -0.0126523655 0.053139932 -0.048078988 0.010121892
-0.04048757 -0.015182838 0.043018043 -0.015182838 -0.055670407 0.048078988 -0.04048757 0.03289615
-0.035426624 0.035426624 0.037957095 0.045548514 -0.0126523655 0.007591419 -0.030365676 -0.037957095
0.002530473 -0.022774257 -0.030365676 -0.0657923 0.053139932 -0.06073135 0.020243784 0.050609462
0.020243784 -0.002530473 0.027835203 0.002530473 0.025304731 -0.035426624 -0.035426624 0.0
-0.025304731 0.050609462 0.0126523655 -0.053139932 0.015182838 0.002530473 -0.017713312 0.005060946
0.022774257 0.035426624 0.010121892 -0.025304731 -0.010121892 -0.007591419 0.0126523655 -0.050609462
0.007591419 0.05820088 -0.048078988 0.017713312 0.017713312 0.0126523655 -0.015182838 0.050609462
0.050609462 -0.027835203 -0.005060946 0.007591419 -0.017713312 -0.04048757 -0.007591419 -0.030365676
-0.03289615 0.020243784 0.035426624 0.053139932 0.03289615 -0.0126523655 -0.050609462 0.050609462
-0.06832277 -0.0126523655 0.027835203 -0.025304731 0.002530473 0.0126523655 0.055670407 0.0
-0.055670407 -0.022774257 -0.020243784 -0.04048757 -0.022774257 0.027835203 0.0 -0.06073135
0.020243784 0.035426624 0.05820088 0.048078988 0.03289615 0.002530473 0.010121892 0.022774257
0.002530473 -0.048078988 -0.020243784 0.007591419 -0.06073135 -0.04048757 -0.07085325 0.050609462
0.055670407 0.05820088 -0.055670407 -0.053139932 -0.022774257 0.022774257 -0.05820088 -0.035426624
0.005060946 -0.0657923 0.007591419 0.025304731 -0.055670407 0.03289615 -0.025304731 -0.053139932
0.022774257 -0.07085325 -0.06073135 0.010121892 0.050609462 0.037957095 -0.037957095 -0.027835203
0.048078988 -0.005060946 0.015182838 -0.043018043 0.050609462 -0.022774257 0.007591419 -0.037957095
-0.045548514 0.045548514 -0.04048757 0.020243784 -0.010121892 0.005060946 -0.053139932 0.015182838
0.025304731 0.048078988 -0.030365676 -0.050609462 -0.020243784 0.030365676 0.03289615 0.03289615
-0.050609462 0.022774257 -0.07338372 0.055670407 0.025304731 0.03289615 -0.0126523655 -0.07085325
-0.027835203 0.007591419 0.017713312 -0.055670407 0.048078988 -0.06832277 0.010121892 -0.06326183
-0.030365676 0.037957095 0.055670407 -0.015182838 0.020243784 -0.022774257 0.007591419 0.010121892
-0.045548514 -0.0126523655 -0.045548514 -0.030365676 -0.0657923 0.0126523655 0.025304731 0.002530473
-0.017713312 -0.007591419 -0.06326183 -0.06832277 0.015182838 0.007591419 -0.05820088 -0.05820088
0.04048757 -0.037957095 -0.030365676 -0.03289615 -0.027835203 -0.05820088 0.002530473 -0.017713312
-0.0657923 0.030365676 0.007591419 -0.0657923 0.017713312 0.015182838 0.035426624 -0.04048757
-0.05820088 0.045548514 0.0 0.045548514 -0.06326183 -0.020243784 -0.050609462 0.04048757
-0.020243784 0.055670407 0.017713312 0.022774257 -0.05820088 -0.045548514 0.027835203 -0.06326183
0.045548514 -0.007591419 -0.06326183 -0.025304731 -0.027835203 0.020243784 -0.022774257 -0.06073135
0.017713312 0.035426624 0.048078988 -0.020243784 0.04048757 -0.027835203 0.055670407 0.017713312
0.04048757 0.027835203 -0.0657923 0.053139932 0.055670407 0.017713312 0.050609462 0.043018043

sequential_1/dense_3/StatefulPartitionedCall/StatefulPartitionedCall/MatMul_bias f4 [1024]
00000000: 88e3 51bc 0d8c dfbb f3fd 28bc 1891 ccbb
00000010: 3baf c3bb d3e4 01bd 6828 5bbc 6b24 1fbc
00000020: 5ea6 2e3d bc3d 17bc a625 a03c 2e45 b63c
00000030: ac0d 553d f529 e2bb 45fa e73c d483 df3c
00000040: 7ad2 b63c 4573 4e3c d711 24bc cc2e b73c
00000050: 2740 33bc c671 ae3a 21ae d3ba 16ae edbb
00000060: b0e5 3f3c eb5c fb3b 32f5 ebbb 6122 4f3a
00000070: 1ffb 823d 3e19 a63b 2451 093c a84e dfbb
00000080: 8baa 943b e42c 073d 8dac f5bb c854 22bc
00000090: 7f07 06bc a83b 75bc 766b 07bc 497d 68bc
000000a0: 9884 0bbb 42f9 073d c1f0 5bbc 7b61 03bc
000000b0: 0d03 c7bc d14a 1cba c0a9 d2bc 3ad1 3f3d
000000c0: 5b32 72bc 27d7 153c 6c18 663d e17e 453b
000000d0: 494e 073c 776e 5bbc 49b8 c5bb c740 b93b
000000e0: 5a2e 16bc 97b5 5d3b 0000 0000 0000 0000
000000f0: eb12 e4bb 9335 04bc 3f30 f13b e453 dcbb
00000100: a85a 90bb f5f9 f0bb 1464 2a3c 80cd fd3c
00000110: 08f5 bebb 2e0e c53c d009 08bb eabc 493b
00000120: 0000 0000 297c af3c 1165 e1bb b8e4 f4bb
00000130: de73 c2bb 75f1 6a3c 6fb9 0bbc ea76 c7bb
00000140: d90d fbbb fb14 09bc b5cd 3fbc 1605 43bc
00000150: 2f6e 5fbc 2a6a a1bb 1474 a43b 3ea6 adbb
00000160: 45c1 60bb b887 943a b383 f3bb cbd0 f6bb
00000170: e4b8 c8bb 5dae a5bb 9248 cdba ce26 d8bb
00000180: 862a b53c 759f 203c 26cd ddbb 5e94 3fbc
00000190: 2ad8 113d e3f4 6cbc 6003 a2ba 91f5 01bc
000001a0: c802 c1bb 451f cf3b 4197 27bc 08eb 02bc
000001b0: 23ac fa3b 015c d23b 2fdd ad3b bece cdbb
000001c0: a29b 243c 2ff8 a63b 537b 01bc 77ba 03bc
000001d0: be0f c33c a6c8 bc3b a91c 0a3d d0c9 78bc
000001e0: 1dc7 8d3c 6d1c cbbb 9149 9c3c 696a 11bc
000001f0: 5b87 08bc b5a8 9a3c eb85 b5bb 9ca7 a0bc
00000200: 902e bc3c 0e78 9f3c e3dc 89bc 793a c93c
00000210: 96da 483d 1947 29bc 96fb 9ebc ce70 6e3c
00000220: a5b0 393c 2bc9 aa3c d7b2 eb3c f2f0 2c3d
00000230: 2d64 1f3d 8f1e 0fbc a8c0 b23c 2bca 8aba
00000240: a543 153d e05d d23b d29d 6fbc 88b6 763b
00000250: bc91 03bc 5bc2 0fbc 24c2 c7bb 5b53 bdbb
00000260: 4fb8 2a3d 2470 813c 5447 36bc 6cc5 c6bc
00000270: c25e e93c 23c2 e53b 3b8b 4f3b bbe9 193d
00000280: 7b14 6dbc 53ba 8cbb 00c1 18bb c680 c039
00000290: 738a 11bc b5a1 db3b 2e1b fbbb c69b a9ba
000002a0: 02a7 213c 7aba 283c b814 443d 8d81 cabb
000002b0: 57c4 b43b f1ec 9dbb 3db6 94bc 3b4a d23b
000002c0: 1b29 d3bb 0e84 cabb 18ef c4bb a44b b6bb
000002d0: a456 62bc 5942 213d e633 c33a e7e3 c2bb
000002e0: 2c63 d13c b5de 163b ef90 183a dcad dabc
000002f0: 49ae 903c 6c51 f5ba ad99 b53c 76b3 40bc
00000300: fa4c b6bb 474e f8bb 6a93 03bc 173f 96bb
00000310: 78bf 723c bfa3 12bc e8c4 ba3c 86f3 d1bb
00000320: cad6 093c a482 e7bb 5757 1c3c b05e c13c
00000330: a9c0 c6bb b569 c1bb f1f6 bebc 22b0 9f3c
00000340: 3786 d73b f875 3ebc bf30 f2bc 9196 5bbc
00000350: 7bd0 043a cabe 8a3c 0000 0000 d268 a13c
00000360: b0b7 c4bb 8f2a f03c fa15 2a3d 4931 0e3d
00000370: 2b32 c6bb cb56 9bbb be5c c63b f63b 5c3b
00000380: 5d73 eabb d42c a03c 1d45 c1bb 188b b7bc
00000390: 78d1 433c 3e89 433a d621 2f3c 7814 ce3c
000003a0: 8245 ddbb 43f2 18bc 4779 b7bb 3cb0 c3bb
000003b0: c147 003d 3ae2 793c 0141 28bc d424 f63c
000003c0: 4f82 73ba 543c 07bc e377 3d3c dd90 24bc
000003d0: 6164 c4bb ace4 7abc a0e0 cfbb 3c0a 203d
000003e0: a1f7 d1bb 114e 43bb 20f6 dd3c 459f cabb
000003f0: 614c bfbb fa77 063c 7fed 90bc 3448 3f3c
-0.012810595 -0.0068221153 -0.010314452 -0.0062428825 -0.005971817 -0.031712364 -0.013376333 -0.009713273
0.04263913 -0.009231027 0.019549202 0.022249784 0.05201499 -0.0069019743 0.02831758 0.02728454
0.02231716 0.012600725 -0.010014019 0.022361182 -0.010940588 0.0013309054 -0.0016149917 -0.0072534187
0.011712477 0.007670989 -0.0072008604 0.0007901546 0.06395554 0.005068927 0.008381162 -0.0068147965
0.004536932 0.033001795 -0.0074973763 -0.009907909 -0.008180498 -0.014967836 -0.008265367 -0.014190027
-0.0021288749 0.033196695 -0.013424099 -0.008018847 -0.024293447 -0.0005962076 -0.025715709 0.046830393
-0.0147825135 0.009145535 0.056175634 0.003013544 0.008258411 -0.013393036 -0.0060339314 0.005653474
-0.0091663245 0.003383016 0.0 0.0 -0.006960263 -0.008069414 0.0073604877 -0.0067238677
-0.0044053383 -0.007354016 0.010399837 0.03098178 -0.00582755 0.024054613 -0.0020757802 0.0030782768
0.0 0.021421509 -0.006878503 -0.0074735545 -0.0059342226 0.014339794 -0.0085280975 -0.0060871737
-0.007661563 -0.008366819 -0.011706759 -0.011903068 -0.01363711 -0.004925986 0.0050187204 -0.0052993586
-0.0034294885 0.0011331951 -0.0074314713 -0.0075322143 -0.0061255563 -0.005056186 -0.0015661886 -0.0065964228
0.022115003 0.0098036425 -0.0067688404 -0.011693088 0.03560654 -0.014462682 -0.0012360625 -0.007932083
-0.005890224 0.0063208663 -0.010228933 -0.007990606 0.007649915 0.006419659 0.005305908 -0.006280749
0.010046871 0.0050955038 -0.007902938 -0.008040062 0.023811217 0.005761224 0.03371874 -0.015184835
0.017306859 -0.006198457 0.019078048 -0.008875468 -0.0083330525 0.018879274 -0.005539646 -0.019611172
0.022971421 0.019466426 -0.01682896 0.024564015 0.049036585 -0.010331892 -0.019407075 0.014553262
0.011333619 0.020847877 0.0287718 0.04222197 0.038913894 -0.008735313 0.021820381 -0.0010588815
0.036441464 0.006419882 -0.01462503 0.0037645418 -0.008030351 -0.008774365 -0.0060961414 -0.005777759
0.041679677 0.015800543 -0.011125404 -0.02426406 0.028487567 0.0070116683 0.0031668681 0.03757642
-0.014470215 -0.0042946725 -0.0023308396 0.00036717037 -0.0088831065 0.0067026266 -0.007663152 -0.0012940101
0.009866478 0.010298366 0.04787132 -0.0061799944 0.0055165696 -0.0048195054 -0.018153304 0.0064175404
-0.006444109 -0.006180293 -0.0060099475 -0.0055632163 -0.013814602 0.039369915 0.0014892786 -0.005947578
0.025559984 0.0023020927 0.00058199366 -0.02669423 0.01766123 -0.0018716282 0.022168005 -0.011761537
-0.0055633755 -0.0075776908 -0.008030752 -0.0045851576 0.0148161575 -0.008950173 0.02279897 -0.006407204
0.008413026 -0.007065134 0.009542308 0.02360472 -0.0060654473 -0.005902494 -0.02331111 0.019493166
0.006577279 -0.011624806 -0.02956426 -0.013402597 0.00050664664 0.016936678 0.0 0.019703303
-0.0060033426 0.029317169 0.041524865 0.03471497 -0.006048461 -0.004740571 0.006053536 0.0033605075
-0.0071548657 0.019552626 -0.0058981315 -0.022405192 0.011951797 0.00074591103 0.010689219 0.025156245
-0.0067526707 -0.009335103 -0.005599174 -0.0059719365 0.03131843 0.0152516905 -0.010269404 0.030046858
-0.0009289132 -0.008254129 0.011564228 -0.010044304 -0.0059934114 -0.015313309 -0.006343916 0.03907226
-0.0064076935 -0.002980117 0.0270949 -0.006183537 -0.0058379625 0.008207316 -0.017691372 0.011674929

sequential_1/dense_4/StatefulPartitionedCall/StatefulPartitionedCall/MatMul/ReadVariableOp/transpose f4 [12, 12]
00000000: a890 be3e 6fbd 23be 9133 51bd 0d18 0abe
00000010: f95f b0bd d693 6c3e 1e64 61be 55f7 31bf
00000020: b730 0cbc 1ddf 00be 36b4 0e3f d844 e83e
00000030: bb7b 083f 3a1b b83e cf79 d93e 44c2 cc3e
00000040: 5a26 d2be 4a22 84be cf5f 423e d395 f5be
00000050: 6246 c53e 8945 c63e 1084 153e 85c2 0abe
00000060: 07bc 9f3d 60eb 53be 649b c93e e8d0 57be
00000070: c6b0 bdbe 8c4a bcbd e533 7cbe dba9 61be
00000080: 86a8 cb3e 303a 4d3e 2d29 573e 4eb5 083f
00000090: 8db8 14be e58d 1dbe b70b fb3e ad41 6cbe
000000a0: 0293 7a3e 6dd1 a0be 4df5 cebe fe82 793e
000000b0: 83c7 b4be 275f 9a3d 59ed fa3e 5019 c6be
000000c0: 3ea2 c63e b8b0 fcbe 87f6 023d 922f 6dbe
000000d0: 0a03 433e 0b26 a8bd d1b0 a83e a6af 6bbe
000000e0: 0019 7d3e de15 94bd 99f3 a3be 3953 d13d
000000f0: 4d37 b8be f66d 98be 9495 a4be b0ce e83e
00000100: 7eb9 42bc 5e96 e53e 406b 41be 999c 8c3c
00000110: 0306 af3e 000e 9cbe 6ff7 8c3e a2a0 80bd
00000120: 1566 833e 56b1 99bd 28e9 27be 475e 003c
00000130: 0b58 ba3c ece0 9cbe 55d0 483e 316d 033f
00000140: b8d7 0ebe 4e7f edbe fbd2 e0bc ce7a 2e3e
00000150: 7b9d 5abd d287 5e3d 9de9 353e 61d2 c83d
00000160: 7f4e cfbd b686 bebe 976f 6ebe e743 e53e
00000170: af32 e73e c1dd de3c 8b28 ea3d 3c22 3abe
00000180: 3054 823e fe80 1c3d 8f67 f63d 2f5e 5c3e
00000190: f79b 1dbc e202 123f ce28 15be 9152 b0be
000001a0: 41ab 08bf 2809 ac3d c4e1 1fbd 5373 963e
000001b0: fe74 92be af4d ec3e 71e9 50be efc8 803e
000001c0: 4a74 493e 02ec cbbe b8b4 dc3e 3611 c63e
000001d0: 95e1 773e 226d 9fbd ada1 b0be cf08 923d
000001e0: 8150 5dbd b68b bdbe db95 553e b0ac 09bd
000001f0: bdf0 35be 8c41 bd3e ebad a83e 962f 023e
00000200: 7434 9abe c78a 6c3d 1367 ea3d 2200 053f
00000210: 6508 b8be b925 e33e 891b 06bf 6a7f fd3e
00000220: 5afe ab3e b17b 9ebe 35bf a63e add0 0e3e
00000230: c41c ee3d db1a be3d fd66 d53e fd7b 15bd
0.3721974 -0.15990232 -0.05107457 -0.13485737 -0.08612055 0.2310327 -0.22010848 -0.69518024
-0.008556536 -0.12585111 0.5574373 0.45365024 0.533138 0.35958272 0.42475745 0.39991963
-0.41044885 -0.2580741 0.1898186 -0.4796587 0.3853026 0.38724926 0.14601159 -0.13550766
0.07799535 -0.20695257 0.39376366 -0.21075785 -0.3704893 -0.09193906 -0.24629171 -0.22037451
0.3977701 0.20041728 0.21011801 0.5340165 -0.14523526 -0.1538616 0.49032375 -0.23071928
0.24470142 -0.3140978 -0.40421525 0.24366376 -0.35308465 0.0753768 0.49009207 -0.38691187
0.38795656 -0.49353576 0.031973388 -0.23162678 0.19044128 -0.08210381 0.329474 -0.23016223
0.24716568 -0.07230733 -0.32021788 0.102209516 -0.3597969 -0.29771394 -0.3214537 0.4547019
-0.011885045 0.44841284 -0.18888569 0.017164515 0.34184274 -0.3047943 0.27532527 -0.06280638
0.2566382 -0.07504527 -0.16397536 0.0078349775 0.02274706 -0.30640352 0.19610722 0.5133849
-0.13949478 -0.46386188 -0.027444353 0.17039034 -0.05337284 0.054328747 0.17764898 0.098057516
-0.10122394 -0.3721215 -0.23284756 0.44778368 0.45155856 0.02720535 0.11433514 -0.18177122
0.25454855 0.038208954 0.12031471 0.21520303 -0.009619704 0.5703565 -0.14566347 -0.34437993
-0.5338631 0.08400184 -0.039033666 0.2938486 -0.28604883 0.46153018 -0.20401551 0.251533
0.19673267 -0.39828497 0.43106627 0.38685006 0.24207146 -0.07784487 -0.3449835 0.07130586
-0.054031853 -0.37020653 0.20857947 -0.033611953 -0.17767616 0.3696407 0.3294519 0.12713465
-0.30118144 0.057749536 0.11445441 0.5195333 -0.35943905 0.44364718 -0.52385765 0.49511272
0.33592492 -0.30953744 0.32567754 0.13946791 0.1162658 0.09282466 0.41680136 -0.036495198

sequential_1/dense_4/StatefulPartitionedCall/StatefulPartitionedCall/MatMul_bias f4 [12]
00000000: 0cbf 81bd 567b 14be 0868 14be adc1 d03d
00000010: 488c 3d3e 66a6 a2bd 6ebf debd 7767 413b
00000020: 2a51 68bd 6e84 2fbe 81fe cd3d 2766 2bbe
-0.063352674 -0.14500174 -0.1449281 0.10193191 0.18510544 -0.07941894 -0.10876356 0.0029511133
-0.05671803 -0.17140362 0.100583084 -0.16738187

sequential_1/headlayer/StatefulPartitionedCall/StatefulPartitionedCall/MatMul/ReadVariableOp/transpose i1 [12, 1024] scale=0.0029082738 zero_point=0
00000000: f918 fa0f e421 d614 ee0f d5f5 c2f4 0fb9
00000010: ebf7 162c dc04 f9ec 09c3 1517 131f e415
00000020: cae6 0509 140a 0af0 de09 1603 1be4 1d0b
00000030: 3c07 bdeb 251b 07b7 1626 f6ee 1216 190d
00000040: 2413 0e0c eaee 0614 f0da f116 eef0 1fee
00000050: 01fa eaf7 2001 2d04 35d2 f10c f309 e3f2
00000060: e842 fd24 160e f8e9 0b02 0dbb f9e1 e7ff
00000070: 07f3 f6f9 100c dc20 c4fc fd18 f3c9 fc1b
00000080: 0901 d817 b816 00ba ffe0 fdd3 06f1 16d4
00000090: 010a 10c6 f20b 05fc 2209 0526 eee7 0a02
000000a0: 34f6 0d0c 0e25 f902 e7e4 0409 d613 1a00
000000b0: 0215 09f6 02e3 ce0d fe2b 0a24 d02d c900
000000c0: 1836 fe14 ddf0 1523 f504 b0e9 f3f9 1409
000000d0: d905 fc13 160a fe0d 13f0 14fd ee19 0913
000000e0: f6e8 0e09 e82b 36ba 0607 15ed e5db 09fa
000000f0: 3d0f 0417 12fb ed01 f61f 0e0d 04ff fc26
-0.020357916 0.069798574 -0.017449643 0.043624107 -0.081431665 0.09597304 -0.1221475 0.058165476
-0.05234893 0.043624107 -0.12505578 -0.031991012 -0.18031298 -0.034899287 0.043624107 -0.20648745
-0.06107375 -0.026174465 0.063982025 0.12796405 -0.10469786 0.011633095 -0.020357916 -0.058165476
0.026174465 -0.1774047 0.06107375 0.0668903 0.0552572 0.09015649 -0.081431665 0.06107375
-0.15704678 -0.07561512 0.014541369 0.026174465 0.058165476 0.029082738 0.029082738 -0.04653238
-0.09888131 0.026174465 0.063982025 0.008724822 0.07852339 -0.081431665 0.08433994 0.031991012
0.17449643 0.020357916 -0.19485435 -0.06107375 0.107606135 0.07852339 0.020357916 -0.212304
0.063982025 0.1105144 -0.029082738 -0.05234893 0.05234893 0.063982025 0.07270685 0.03780756
0.10469786 0.0552572 0.040715832 0.034899287 -0.063982025 -0.05234893 0.017449643 0.058165476
-0.04653238 -0.1105144 -0.043624107 0.063982025 -0.05234893 -0.04653238 0.09015649 -0.05234893
0.0029082738 -0.017449643 -0.063982025 -0.026174465 0.09306476 0.0029082738 0.13087232 0.011633095
0.15413852 -0.1337806 -0.043624107 0.034899287 -0.03780756 0.026174465 -0.08433994 -0.040715832
-0.069798574 0.19194607 -0.008724822 0.10469786 0.063982025 0.040715832 -0.02326619 -0.0668903
0.031991012 0.0058165477 0.03780756 -0.2006709 -0.020357916 -0.09015649 -0.07270685 -0.0029082738
0.020357916 -0.03780756 -0.029082738 -0.020357916 0.04653238 0.034899287 -0.10469786 0.09306476
-0.17449643 -0.011633095 -0.008724822 0.069798574 -0.03780756 -0.15995505 -0.011633095 0.07852339
0.026174465 0.0029082738 -0.11633095 0.0668903 -0.20939572 0.063982025 0.0 -0.20357917
-0.0029082738 -0.09306476 -0.008724822 -0.13087232 0.017449643 -0.043624107 0.063982025 -0.12796405
0.0029082738 0.029082738 0.04653238 -0.16867988 -0.040715832 0.031991012 0.014541369 -0.011633095
0.09888131 0.026174465 0.014541369 0.1105144 -0.05234893 -0.07270685 0.029082738 0.0058165477
0.15123025 -0.029082738 0.03780756 0.034899287 0.040715832 0.107606135 -0.020357916 0.0058165477
-0.07270685 -0.081431665 0.011633095 0.026174465 -0.1221475 0.0552572 0.07561512 0.0
0.0058165477 0.06107375 0.026174465 -0.029082738 0.0058165477 -0.08433994 -0.1454137 0.03780756
-0.0058165477 0.12505578 0.029082738 0.10469786 -0.13959715 0.13087232 -0.15995505 0.0
0.069798574 0.15704678 -0.0058165477 0.058165476 -0.101789586 -0.04653238 0.06107375 0.101789586
-0.031991012 0.011633095 -0.2326619 -0.0668903 -0.03780756 -0.020357916 0.058165476 0.026174465
-0.11342268 0.014541369 -0.011633095 0.0552572 0.063982025 0.029082738 -0.0058165477 0.03780756
0.0552572 -0.04653238 0.058165476 -0.008724822 -0.05234893 0.07270685 0.026174465 0.0552572
-0.029082738 -0.069798574 0.040715832 0.026174465 -0.069798574 0.12505578 0.15704678 -0.20357917
0.017449643 0.020357916 0.06107375 -0.0552572 -0.07852339 -0.107606135 0.026174465 -0.017449643
0.1774047 0.043624107 0.011633095 0.0668903 0.05234893 -0.014541369 -0.0552572 0.0029082738
-0.029082738 0.09015649 0.040715832 0.03780756 0.011633095 -0.0029082738 -0.011633095 0.1105144

sequential_1/headlayer/StatefulPartitionedCall/StatefulPartitionedCall/MatMul_bias f4 [12]
00000000: 98fc 893a 7fc8 c4bb e2d9 fcbb 17ba e7bb
00000010: e25d 663d 0328 713c e0c5 c4bb a122 063c
00000020: 9f9e 6bbb 8b02 bfbb 4f8a c9bb 8e63 53bc
0.0010527549 -0.0060053463 -0.0077164033 -0.007071744 0.056241877 0.014719012 -0.006005034 0.008186967
-0.00359527 -0.0058291606 -0.006150521 -0.012902154
