AndroidApp/app/src/main/ml/converted_base_model.tflite (tflite, 168648 bytes, 8 tensors)

sequential_2/conv1d_2/StatefulPartitionedCall/StatefulPartitionedCall/conv1d/ExpandDims_1 i1 [6, 1, 75, 6] scale=0.0013018608 zero_point=0
00000000: 343f dc3b b9d7 fee1 001f eaf0 1135 042d
00000010: 2e32 de0f a9fb 2f26 e347 fd08 d919 f7fb
00000020: ab51 e535 e83a 162f e23b ee5e eb36 be20
00000030: dd42 d20e 25fd c720 0a14 1f21 e90a de04
00000040: 02ec fa46 c4fb 062a 03ec c50d e0e8 bf42
00000050: ed36 09f6 252f 260b 2528 1def 2a3a d1c8
00000060: ee2a 2f48 ebe9 f830 ed33 eef7 fb3c e30d
00000070: 1917 de2a ee24 ecef dbf4 060c ec24 243c
00000080: d71c e227 cef4 cfe3 c2bf f63d d6ee f9cb
00000090: 0fea e5ca c101 e418 c60c 0b29 e6e8 b50c
000000a0: b219 dc3b c132 e3e9 14da ce35 1020 b027
000000b0: d736 e8e5 1b36 f803 fc1a da2e 0e12 d4ca
000000c0: f90f cd06 060e c2ea ff17 1b27 0c04 2bfe
000000d0: fbc9 09fc d62e fdda d2fa 3fdc c2bd f9c2
000000e0: 06f5 2e0f c515 4130 b9db d8da ca30 d404
000000f0: d6f4 1840 f927 4821 fa1d 0a16 190d 241a
0.06769676 0.08201723 -0.046866987 0.076809786 -0.09243212 -0.05337629 -0.0026037216 -0.040357683
0.0 0.040357683 -0.028640937 -0.020829773 0.022131633 0.06899862 0.005207443 0.058583736
0.059885595 0.06509304 -0.044263266 0.019527912 -0.113261886 -0.006509304 0.061187457 0.04947071
-0.037753962 0.09243212 -0.0039055822 0.010414886 -0.05077257 0.03254652 -0.011716747 -0.006509304
-0.11065817 0.10545073 -0.03515024 0.06899862 -0.031244658 0.075507924 0.028640937 0.061187457
-0.039055824 0.076809786 -0.023433493 0.122374915 -0.027339077 0.07030048 -0.085922815 0.041659545
-0.04556513 0.085922815 -0.059885595 0.018226052 0.04816885 -0.0039055822 -0.07420606 0.041659545
0.013018608 0.026037216 0.040357683 0.042961407 -0.029942797 0.013018608 -0.044263266 0.005207443
0.0026037216 -0.026037216 -0.0078111645 0.09113026 -0.07811165 -0.006509304 0.0078111645 0.054678153
0.0039055822 -0.026037216 -0.076809786 0.01692419 -0.041659545 -0.031244658 -0.08462095 0.085922815
-0.024735356 0.07030048 0.011716747 -0.013018608 0.04816885 0.061187457 0.04947071 0.0143204685
0.04816885 0.052074432 0.037753962 -0.022131633 0.054678153 0.075507924 -0.061187457 -0.07290421
-0.023433493 0.054678153 0.061187457 0.093733974 -0.027339077 -0.029942797 -0.010414886 0.062489316
-0.024735356 0.0663949 -0.023433493 -0.011716747 -0.006509304 0.07811165 -0.037753962 0.01692419
0.03254652 0.029942797 -0.044263266 0.054678153 -0.023433493 0.046866987 -0.026037216 -0.022131633
-0.04816885 -0.015622329 0.0078111645 0.015622329 -0.026037216 0.046866987 0.046866987 0.07811165
-0.05337629 0.036452103 -0.039055824 0.05077257 -0.06509304 -0.015622329 -0.06379118 -0.037753962
-0.080715366 -0.08462095 -0.013018608 0.07941351 -0.054678153 -0.023433493 -0.009113026 -0.06899862
0.019527912 -0.028640937 -0.03515024 -0.07030048 -0.08201723 0.0013018608 -0.036452103 0.031244658
-0.075507924 0.015622329 0.0143204685 0.05337629 -0.03384838 -0.031244658 -0.09763956 0.015622329
-0.10154514 0.03254652 -0.046866987 0.076809786 -0.08201723 0.06509304 -0.037753962 -0.029942797
0.026037216 -0.04947071 -0.06509304 0.06899862 0.020829773 0.041659545 -0.104148865 0.05077257
-0.05337629 0.07030048 -0.031244658 -0.03515024 0.03515024 0.07030048 -0.010414886 0.0039055822
-0.005207443 0.03384838 -0.04947071 0.059885595 0.018226052 0.023433493 -0.057281874 -0.07030048
-0.009113026 0.019527912 -0.0663949 0.0078111645 0.0078111645 0.018226052 -0.080715366 -0.028640937
-0.0013018608 0.029942797 0.03515024 0.05077257 0.015622329 0.005207443 0.055980016 -0.0026037216
-0.006509304 -0.071602345 0.011716747 -0.005207443 -0.054678153 0.059885595 -0.0039055822 -0.04947071
-0.059885595 -0.0078111645 0.08201723 -0.046866987 -0.080715366 -0.08722467 -0.009113026 -0.080715366
0.0078111645 -0.0143204685 0.059885595 0.019527912 -0.076809786 0.027339077 0.08462095 0.062489316
-0.09243212 -0.04816885 -0.052074432 -0.04947071 -0.07030048 0.062489316 -0.057281874 0.005207443
-0.054678153 -0.015622329 0.031244658 0.08331909 -0.009113026 0.05077257 0.093733974 0.042961407
-0.0078111645 0.037753962 0.013018608 0.028640937 0.03254652 0.01692419 0.046866987 0.03384838

sequential_2/conv1d_2/StatefulPartitionedCall/StatefulPartitionedCall/conv1d_bias f4 [6]
00000000: 7fac 133c ac5d c13b 6ba9 91bb 7904 453b
00000010: 4d53 f0bb 47ae c3bb
0.009013294 0.005901059 -0.004445245 0.003006248 -0.007334149 -0.005971703

sequential_2/dense_6/StatefulPartitionedCall/StatefulPartitionedCall/MatMul/ReadVariableOp/transpose i1 [2048, 72] scale=0.0014733472 zero_point=0
00000000: e3f4 0130 13f3 f416 1d01 eaea ee39 2d18
00000010: 0af4 ee0f ea13 e2fd 0e11 eb27 fbf5 0ff1
00000020: fb1f 2000 e926 0113 f3e3 d835 0e30 09f3
00000030: e708 2a15 ea25 0519 f246 e9ff ed39 212e
00000040: 062d 1d33 1e09 100e 2ff4 ef00 0a0a 04db
00000050: 1ff8 2a05 0903 22d6 1eed 2dfa e9e5 f320
00000060: 1fd7 0ced f5f5 0d0f 2bdd 2709 26f4 29f3
00000070: 0aee 020e 14d6 2210 0902 f8f1 1bf4 1fdf
00000080: e7ce 2803 2ad8 eee5 00eb 1ed4 09dc 18f1
00000090: d40f f42c 22fb 041a 291d fe25 1401 f7f3
000000a0: 1e24 eee9 0822 da01 fd0e 1727 06e9 162f
000000b0: fd33 1b15 100d e519 13f7 f71d eaf1 051f
000000c0: fb08 0af2 e906 03f9 0d14 f314 1129 fb34
000000d0: 0724 d4f7 fd19 e0ee 1739 fffa 1d01 f827
000000e0: 011d f525 0d1a 000a 160c 2421 1500 0cee
000000f0: 0c2c e31d 07f9 1c13 f320 1210 f5f5 fc1c
-0.042727068 -0.017680166 0.0014733472 0.070720665 0.027993597 -0.019153513 -0.017680166 0.03241364
0.042727068 0.0014733472 -0.03241364 -0.03241364 -0.026520249 0.08398079 0.06630062 0.035360333
0.014733472 -0.017680166 -0.026520249 0.022100208 -0.03241364 0.027993597 -0.044200417 -0.0044200416
0.020626862 0.025046902 -0.03094029 0.05746054 -0.007366736 -0.01620682 0.022100208 -0.022100208
-0.007366736 0.04567376 0.04714711 0.0 -0.033886984 0.055987194 0.0014733472 0.027993597
-0.019153513 -0.042727068 -0.058933888 0.078087404 0.020626862 0.070720665 0.013260124 -0.019153513
-0.03683368 0.0117867775 0.06188058 0.03094029 -0.03241364 0.054513846 0.007366736 0.03683368
-0.020626862 0.103134304 -0.033886984 -0.0014733472 -0.027993597 0.08398079 0.04862046 0.06777397
0.008840083 0.06630062 0.042727068 0.07514071 0.044200417 0.013260124 0.023573555 0.020626862
0.06924732 -0.017680166 -0.025046902 0.0 0.014733472 0.014733472 0.0058933888 -0.054513846
0.04567376 -0.0117867775 0.06188058 0.007366736 0.013260124 0.0044200416 0.050093804 -0.06188058
0.044200417 -0.027993597 0.06630062 -0.008840083 -0.033886984 -0.039780375 -0.019153513 0.04714711
0.04567376 -0.060407236 0.017680166 -0.027993597 -0.01620682 -0.01620682 0.019153513 0.022100208
0.063353926 -0.051567152 0.05746054 0.013260124 0.055987194 -0.017680166 0.060407236 -0.019153513
0.014733472 -0.026520249 0.0029466944 0.020626862 0.029466944 -0.06188058 0.050093804 0.023573555
0.013260124 0.0029466944 -0.0117867775 -0.022100208 0.039780375 -0.017680166 0.04567376 -0.04862046
-0.03683368 -0.07366736 0.058933888 0.0044200416 0.06188058 -0.058933888 -0.026520249 -0.039780375
0.0 -0.03094029 0.044200417 -0.06482728 0.013260124 -0.053040497 0.035360333 -0.022100208
-0.06482728 0.022100208 -0.017680166 0.06482728 0.050093804 -0.007366736 0.0058933888 0.038307026
0.060407236 0.042727068 -0.0029466944 0.054513846 0.029466944 0.0014733472 -0.013260124 -0.019153513
0.044200417 0.053040497 -0.026520249 -0.033886984 0.0117867775 0.050093804 -0.055987194 0.0014733472
-0.0044200416 0.020626862 0.033886984 0.05746054 0.008840083 -0.033886984 0.03241364 0.06924732
-0.0044200416 0.07514071 0.039780375 0.03094029 0.023573555 0.019153513 -0.039780375 0.03683368
0.027993597 -0.013260124 -0.013260124 0.042727068 -0.03241364 -0.022100208 0.007366736 0.04567376
-0.007366736 0.0117867775 0.014733472 -0.020626862 -0.033886984 0.008840083 0.0044200416 -0.010313431
0.019153513 0.029466944 -0.019153513 0.029466944 0.025046902 0.060407236 -0.007366736 0.07661405
0.010313431 0.053040497 -0.06482728 -0.013260124 -0.0044200416 0.03683368 -0.04714711 -0.026520249
0.033886984 0.08398079 -0.0014733472 -0.008840083 0.042727068 0.0014733472 -0.0117867775 0.05746054
0.0014733472 0.042727068 -0.01620682 0.054513846 0.019153513 0.038307026 0.0 0.014733472
0.03241364 0.017680166 0.053040497 0.04862046 0.03094029 0.0 0.017680166 -0.026520249
0.017680166 0.06482728 -0.042727068 0.042727068 0.010313431 -0.010313431 0.041253723 0.027993597
-0.019153513 0.04714711 0.026520249 0.023573555 -0.01620682 -0.01620682 -0.0058933888 0.041253723

sequential_2/dense_6/StatefulPartitionedCall/StatefulPartitionedCall/MatMul_bias f4 [2048]
00000000: a962 cf3b 776e e63b 828e 6d3b a312 0a3c
00000010: 8462 543c bd0e bf3b 4f4e debb ec3c e7ba
00000020: 61c5 423c 2d68 2b3c 9fa2 0b3a 296a 46bc
00000030: 0920 f8bb 422a 02ba 1b2b 92ba 0000 0000
00000040: a3d3 fabb 5ead 883b be6a 12ba 230c b4bb
00000050: 0000 0000 c157 d23b e021 293b 8d0c 113c
00000060: b16f 673b 3976 fbb9 1854 4abb 647a d3ba
00000070: daf7 14bc 9e28 64bb 5e79 15bc aae0 26bc
00000080: 20f3 a13b 902e 2e3c b8b6 df3b a9e9 fcbb
00000090: 4916 0dbc 9d41 bebb 6939 9e3a 21fc 243b
000000a0: f488 2fbb 81c0 793b 5d52 dcba bff7 633c
000000b0: cb42 bdbb 686a d23a c72b 043c 1883 19bb
000000c0: d955 843c 5b5e ed3a c94f 953b a8fb af39
000000d0: 0b77 23bc cb39 32bc 0b3b 933b a6b9 14bc
000000e0: 0189 7c3c 2abf 7c3a f389 863c ee37 883b
000000f0: a145 3cbb 256a a8bb 0b46 1cbc 9216 e9b9
00000100: e9b1 6b3c c3e1 2c3b 1a09 4fba 1f3f 8a3b
00000110: 52de 2e3c 8924 843b 0000 0000 f6c7 233c
00000120: e3b3 bb3b bd0c 9bbb 52ad f2ba 83b4 9d3c
00000130: 78c0 c4bb 7325 18bb e65a 31bc 2292 aa3b
00000140: 0a9c b038 f53a bdbb 1572 fb3b 6324 19bc
00000150: 3af7 b23b 0614 533c 7316 1a3c 4331 a53b
00000160: ee8b 0abc 1fd0 f6ba 9b46 1bbb 0ad3 763c
00000170: 295b beb9 5626 093c 2b9a ce3b 4a0c 06bc
00000180: eb8c 1abc cd90 4a3b b02d 86ba 2afe 7eba
00000190: 143c 1c3c 0b73 29bb 473c 01bc 38f5 09bc
000001a0: 21a1 c23b aecb dc3c 0655 043a 1e3b 533b
000001b0: 252f e0ba 006e 3dbb 028c 92bb cfcb ddba
000001c0: 9f07 b33b da89 16bc 7aeb fb3b 7c24 4d3c
000001d0: 83e9 653c 1baa df3a 035c 353c 24dc c13c
000001e0: 13df 1cbc 476a fd3a cf79 c43a daaa 403c
000001f0: 1232 daba 4f8a bf3c cfbc 263c 6e64 3e3c
00000200: fe9d 0b3c 9fac c3bb 44f2 9abb d197 643a
00000210: 5603 4fbb 232e a5ba 82fb b33b 1994 a8bb
00000220: e8ae 99ba eb7f 59bb 9cce 763c e08d 213c
00000230: 733d c33a cf70 b1ba 80f2 093b 2900 66ba
00000240: dc92 afbb 1fc7 263b d802 d7bb 0240 22bc
00000250: 648d 393b f230 d83b 5aba a63a 35d1 923a
00000260: 26d8 2bbc 4032 50bc 0164 98bb 7dbe 3c3c
00000270: 71a9 5d3b 4841 b13b 844b f6bb b4a1 273b
00000280: c764 e93b bfd7 fabb b5d3 6a3c a986 253c
00000290: c7b6 22bc 4d5b 873b 2669 0d3b 7e1a 4f3b
000002a0: b83e 1d3b 4c36 893b fac8 923a 050a dd3a
000002b0: 4101 2e3c c54e 583a 43d3 953b c064 b83b
000002c0: a063 c33b 82cd 04bc 9faf 09bc 516e f83a
000002d0: 9fdd 84bc 2b20 783c a866 183c fc5f 88bb
000002e0: a0c4 03bc 73fe 173c c754 cfbb cbda a13b
000002f0: 2aa5 953c ceeb 513c 4fc8 f2bb dfec 09bc
00000300: 689e 803c 9a92 3e3c 5a50 fcb9 0d12 373c
00000310: 35a7 b1b9 5c11 5c3c a19e 35bc 3de6 86bb
00000320: 4f28 4aba 39a9 1c3c 6879 4fbc 772f 543b
00000330: 73cd e63b 5309 26bc 907f 1e3c 251c 4e3b
00000340: e762 913a 768c 853b 4e3c 8b3c b801 83bb
00000350: 6735 913a daad 25bc 8d77 54ba ffb7 2ebb
00000360: 33f8 e4bb 6cbc 0d3c 051f 563b 64af 66ba
00000370: 077e ccbb 5d69 173c 68ed c33b b672 183c
00000380: c869 533b 9a1d 9bbb 99f6 053c 7bdd 46bc
00000390: c2de 053c 72e0 d5bb 1018 013b d3d4 063c
000003a0: b3de ff3c c3c9 8d3b b4a5 dd3b 9cef f83b
000003b0: 9c40 9dbb 1358 00bc bee7 003b 17ad 52bb
000003c0: 1a8c 103a 69ae 8b3a c89d e337 b648 d1bb
000003d0: f0ee b9bb 46b6 edba d72b 413b f76e c93a
000003e0: 727f 04bc 2386 923c ddcd 273b a3bc 873c
000003f0: 320b c33c 121d dab8 685d 19bc 6051 4b3c
0.0063289 0.0070322114 0.0036248271 0.008427295 0.012962941 0.0058306144 -0.0067842375 -0.0017642058
0.011887879 0.010461849 0.00053266616 -0.0121102715 -0.0075721783 -0.00049654034 -0.0011151762 0.0
-0.0076546236 0.0041710576 -0.0005585364 -0.005494611 0.0 0.0064191525 0.0025807545 0.00885309
0.0035314376 -0.00047962533 -0.0030872878 -0.0016134498 -0.009092296 -0.0034814249 -0.0091231745 -0.0101854
0.004942313 0.010631219 0.0068272017 -0.007718284 -0.00861127 -0.0058061616 0.0012071553 0.0025174695
-0.0026784511 0.0038109126 -0.0016809214 0.013914048 -0.0057757846 0.001605344 0.008067078 -0.0023424085
0.016154217 0.0018109785 0.0045566303 0.000335661 -0.0099771125 -0.010878037 0.0044931225 -0.009077465
0.015413524 0.0009641523 0.016423201 0.004157058 -0.0028728025 -0.0051396065 -0.009538184 -0.0004445804
0.014385679 0.0026379682 -0.00078977796 0.0042189504 0.0106731225 0.0040326756 0.0 0.009996405
0.0057282313 -0.004731743 -0.0018514788 0.019251114 -0.0060043894 -0.002321568 -0.0108248945 0.0052054087
8.4213985e-05 -0.0057748505 0.0076735117 -0.009347054 0.0054616006 0.012883192 0.009404766 0.005041273
-0.008456213 -0.0018830335 -0.0023693207 0.015064964 -0.00036307544 0.008370956 0.0063049993 -0.008181641
-0.0094330115 0.0030909062 -0.0010237005 -0.00097272045 0.009535808 -0.0025855924 -0.007887906 -0.008420281
0.005939618 0.02695259 0.000504807 0.0032231282 -0.0017103894 -0.0028904676 -0.0044722566 -0.0016921702
0.005463555 -0.00918814 0.007687983 0.012520906 0.014032724 0.0017064245 0.011069301 0.023664542
-0.009574669 0.0019334041 0.0014989915 0.011759484 -0.0016647002 0.02338138 0.010176851 0.011620624
0.008521555 -0.005971506 -0.0047285873 0.0008720132 -0.0031587682 -0.0012602251 0.0054926286 -0.0051446077
-0.00117251 -0.0033187817 0.015063908 0.009860486 0.0014895633 -0.0013537648 0.0021049082 -0.00087738276
-0.005358083 0.0025448275 -0.0065616183 -0.009902956 0.0028313035 0.0065976316 0.0012720332 0.0011201265
-0.0104885455 -0.012707293 -0.0046505933 0.011520025 0.0033822919 0.0054093935 -0.0075163264 0.002557856
0.0071226093 -0.0076551135 0.014332701 0.010102906 -0.009931273 0.004130757 0.0021577566 0.0031601484
0.0023993682 0.004187381 0.0011198812 0.0016863948 0.010620416 0.00082514837 0.0045723035 0.0056272447
0.005962804 -0.0081056375 -0.008403688 0.0018953775 -0.016218958 0.015144388 0.009301819 -0.004161833
-0.0080424845 0.009276974 -0.006327245 0.004939412 0.018267233 0.012812568 -0.0074091326 -0.008418291
0.015700534 0.011631632 -0.00048125052 0.011173737 -0.0003388465 0.013431873 -0.011085183 -0.004116802
-0.0007711695 0.00956183 -0.012663223 0.0032376924 0.0070435344 -0.010134059 0.009673968 0.003144988
0.0011092097 0.004075582 0.016996529 -0.0039980076 0.0011078537 -0.01011225 -0.00081049727 -0.0026659963
-0.0069875955 0.00865088 0.0032672298 -0.0008799939 -0.0062406096 0.009241429 0.0059792288 0.009304693
0.0032259095 -0.0047337534 0.008176469 -0.012137766 0.008170785 -0.006527 0.001969818 0.008229452
0.031234121 0.0043270304 0.006764138 0.007596923 -0.004798962 -0.0078334985 0.001966938 -0.0032146627
0.0005514041 0.0010656837 2.7133981e-05 -0.0063868416 -0.0056742355 -0.0018135987 0.0029475593 0.0015368153
-0.008087026 0.017886227 0.0025604882 0.016569441 0.02380905 -0.00010400465 -0.009360649 0.012409538

sequential_2/dense_7/StatefulPartitionedCall/StatefulPartitionedCall/MatMul/ReadVariableOp/transpose i1 [3, 2048] scale=0.0012140552 zero_point=0
00000000: 39c0 2d2d ce3d f516 cc13 09ee f50a 1a1b
00000010: df3e 0513 1ddb e217 2cfb ded2 e3f1 e6fc
00000020: e33d 1610 f6f6 fadb 0de7 023d f714 d219
00000030: 51fe c825 06fb 14dc 3404 2fd2 2837 e60a
00000040: 7dd0 f438 ca4e dad5 3e11 ef5b e104 ea26
00000050: 27f8 1f16 0026 2f3c fb15 2f69 ff1f 490e
00000060: e527 eb05 ccfe f6e4 4966 e818 f00c cb17
00000070: 0e05 0844 4c1c 2448 e0f1 030f ed4f 35d2
00000080: d9da bfe8 e937 24f6 09fb 5f3a 3ed3 24f5
00000090: e62b d61d d146 cf23 dbe7 e150 12e3 210b
000000a0: d2ef 3852 2318 16d2 222c f4d0 2002 2941
000000b0: e3ea 1324 e01c 33ee ffd2 0fc9 4b12 ecdf
000000c0: b937 fc2f e843 fcdd e931 f83c f0fc 343e
000000d0: 220f eaf6 e9ee 00f1 e548 dbd9 27e4 eac3
000000e0: d624 1ce3 ef01 2b29 b20e 2326 dedc 00e3
000000f0: fec8 f1df f90e 17d3 f61b e446 fbff e633
0.06920115 -0.077699535 0.054632485 0.054632485 -0.06070276 0.07405737 -0.013354608 0.026709216
-0.06313087 0.02306705 0.010926497 -0.021852994 -0.013354608 0.0121405525 0.031565435 0.032779492
-0.04006382 0.07527143 0.0060702763 0.02306705 0.035207603 -0.044920042 -0.036421657 0.027923271
0.05341843 -0.0060702763 -0.041277878 -0.055846542 -0.035207603 -0.018210828 -0.031565435 -0.004856221
-0.035207603 0.07405737 0.026709216 0.019424884 -0.0121405525 -0.0121405525 -0.007284331 -0.044920042
0.015782718 -0.03035138 0.0024281105 0.07405737 -0.010926497 0.024281105 -0.055846542 0.03035138
0.09833847 -0.0024281105 -0.06798709 0.044920042 0.007284331 -0.0060702763 0.024281105 -0.04370599
0.06313087 0.004856221 0.057060596 -0.055846542 0.04856221 0.066773035 -0.031565435 0.0121405525
0.1517569 -0.05827465 -0.014568662 0.06798709 -0.065558985 0.094696306 -0.0461341 -0.052204374
0.07527143 0.020638939 -0.020638939 0.11047903 -0.037635714 0.004856221 -0.026709216 0.0461341
0.047348153 -0.009712442 0.037635714 0.026709216 0.0 0.0461341 0.057060596 0.07284331
-0.0060702763 0.02549516 0.057060596 0.1274758 -0.0012140552 0.037635714 0.088626035 0.016996773
-0.032779492 0.047348153 -0.02549516 0.0060702763 -0.06313087 -0.0024281105 -0.0121405525 -0.033993546
0.088626035 0.123833634 -0.029137325 0.029137325 -0.019424884 0.014568662 -0.06434493 0.027923271
0.016996773 0.0060702763 0.009712442 0.082555756 0.0922682 0.033993546 0.04370599 0.08741198
-0.038849767 -0.018210828 0.0036421656 0.018210828 -0.02306705 0.09591036 0.06434493 -0.055846542
-0.047348153 -0.0461341 -0.07891359 -0.029137325 -0.027923271 0.066773035 0.04370599 -0.0121405525
0.010926497 -0.0060702763 0.11533525 0.070415206 0.07527143 -0.054632485 0.04370599 -0.013354608
-0.031565435 0.052204374 -0.05099032 0.035207603 -0.057060596 0.08498386 -0.059488706 0.04249193
-0.044920042 -0.03035138 -0.037635714 0.09712442 0.021852994 -0.035207603 0.04006382 0.013354608
-0.055846542 -0.020638939 0.06798709 0.09955253 0.04249193 0.029137325 0.026709216 -0.055846542
0.041277878 0.05341843 -0.014568662 -0.05827465 0.038849767 0.0024281105 0.049776264 0.07891359
-0.035207603 -0.026709216 0.02306705 0.04370599 -0.038849767 0.033993546 0.061916817 -0.021852994
-0.0012140552 -0.055846542 0.018210828 -0.066773035 0.09105414 0.021852994 -0.024281105 -0.04006382
-0.08619792 0.066773035 -0.004856221 0.057060596 -0.029137325 0.0813417 -0.004856221 -0.04249193
-0.027923271 0.059488706 -0.009712442 0.07284331 -0.019424884 -0.004856221 0.06313087 0.07527143
0.041277878 0.018210828 -0.026709216 -0.0121405525 -0.027923271 -0.021852994 0.0 -0.018210828
-0.032779492 0.08741198 -0.044920042 -0.047348153 0.047348153 -0.033993546 -0.026709216 -0.07405737
-0.05099032 0.04370599 0.033993546 -0.035207603 -0.020638939 0.0012140552 0.052204374 0.049776264
-0.094696306 0.016996773 0.04249193 0.0461341 -0.041277878 -0.04370599 0.0 -0.035207603
-0.0024281105 -0.06798709 -0.018210828 -0.04006382 -0.0084983865 0.016996773 0.027923271 -0.054632485
-0.0121405525 0.032779492 -0.033993546 0.08498386 -0.0060702763 -0.0012140552 -0.031565435 0.061916817

sequential_2/dense_7/StatefulPartitionedCall/StatefulPartitionedCall/MatMul_bias f4 [3]
00000000: a933 e93b 4b81 4abb 76a0 1aba
0.007116754 -0.0030899819 -0.00058985443

sequential_2/dense_8/StatefulPartitionedCall/StatefulPartitionedCall/MatMul/ReadVariableOp/transpose f4 [3, 3]
00000000: eb36 083e fb79 cd3e ffeb 0f3e a41d 06bd
00000010: ddf6 603f 2e6f 593f 1d30 6ebf 8960 fa3d
00000020: 8f4c 3bbf
0.133022 0.40132126 0.14054869 -0.03274311 0.87876683 0.8493527 -0.93042165 0.12225444
-0.73163694

sequential_2/dense_8/StatefulPartitionedCall/StatefulPartitionedCall/MatMul_bias f4 [3]
00000000: 7da0 3abc 3890 75be 5593 e53e
-0.011390802 -0.23980796 0.44838968
