AndroidApp/app/src/main/ml/converted_model.tflite (tflite, 463384 bytes, 6 tensors)

sequential_1/conv2d/StatefulPartitionedCall/StatefulPartitionedCall/Conv2D/ReadVariableOp f4 [1, 75, 1, 6]
0.07979188 0.12509976 -0.055405427 -0.14885615 -0.046506617 0.09950855 0.055187974 -0.10511497
0.05819586 -0.14984412 -0.028056359 0.09759422 0.026563914 0.14837237 0.09346966 -0.025950942
0.034298778 0.010659739 0.10676217 0.21684308 -0.082826756 0.13112038 -0.08447685 -0.15866639
0.12899663 0.1404623 0.17581634 -0.048821572 0.002237697 -0.14526735 0.116894625 -0.057290707
-0.034309376 -0.16663076 0.04733795 0.1448683 0.105542086 0.05119654 0.019789053 -0.14852211
0.0071430667 -0.01209648 0.09875974 -0.11435841 -0.100891136 0.13906476 0.04201621 0.019030215
0.04745843 -0.14176276 0.04574918 -0.11092529 0.078923866 -0.019014133 -0.047077235 0.10680756
-0.061480314 -0.1001436 -0.031687345 -0.042172246 0.029654635 -0.13016005 0.036380462 -0.046231613
0.07388746 0.034761716 0.12591471 0.0145378625 0.11423808 0.057832275 -0.030723067 -0.025942462
0.1582703 0.11139577 -0.011717452 0.042083636 -0.04660062 -0.024389107 0.14621286 0.121835284
0.02754341 0.086027816 0.00479793 -0.030630933 0.10243083 0.042359177 -0.033748847 0.0711299
0.016057473 0.048239022 0.13873644 0.0112871025 -0.028794799 -0.130198 0.10492875 -0.018610433
0.094087206 -0.06348797 0.06196402 -0.2296769 0.10333935 -0.054106858 0.12357238 0.018505905
0.10201845 -0.19824107 0.11375457 0.029915716 0.11117751 -0.092946544 -0.087315485 -0.16915219
0.094578736 0.018619044 0.0949082 0.0022858966 0.036976226 -0.09302753 0.089242965 0.020616028
0.088318974 0.047494818 0.10361234 -0.07084594 -0.004836197 -0.014836365 0.04168753 0.03987456
-0.029861467 -0.08710666 0.083446175 -0.059549384 -0.016058067 0.028708084 0.026028255 -0.16242278
-0.043495197 0.07063001 -0.07527418 -0.05005892 0.071852244 -0.117654964 -0.009701479 -0.005762742
-0.09523198 -0.00056407705 -0.10037517 -0.012323794 0.008836468 0.04238349 -0.0461428 0.016262146
0.00028275297 -0.09088481 0.019560453 -0.022156283 -0.02615209 0.012516324 -0.08854891 -0.093112975
0.02518945 -0.080725566 -0.061928224 -0.027621707 0.10424544 0.08429739 0.08718088 0.12083754
0.02459031 -0.00990604 0.06501766 -0.0549162 0.057888575 0.11507236 0.07052862 0.088972025
0.01362831 -0.06088564 0.0467853 -0.03438135 0.041779354 -0.056843083 -0.12685251 0.009414244
0.050405372 -0.06718038 -0.058025338 0.0044958224 0.07635432 -0.032504626 -0.019041685 0.050955612
-0.14946643 -0.026082393 0.05406583 -0.054442763 0.010372521 -0.0014340779 -0.16918842 -0.014413865
-0.015995253 -0.009478958 0.03860504 0.117504336 -0.18020199 0.060473938 -0.064773425 0.11733034
-0.0051913313 -0.06067751 -0.17593563 0.10273909 0.09930497 -0.0050996467 0.011802146 0.005023535
-0.058616083 -0.19325352 -0.006603988 -0.108489975 0.104650564 -0.16386357 -0.030137537 -0.29297617
-0.03719383 0.11304397 0.06866431 0.15672968 0.06828731 0.045105275 -0.015090557 0.11034527
-0.036070842 -0.007862532 0.082448125 0.040770218 -0.026642285 0.088721074 0.08796765 -0.095030054
0.062038038 0.04719947 -0.14759521 -0.111276336 0.10919728 -0.1663158 -0.06952029 -0.022941738
0.15783545 0.14554231 0.06697723 -0.049045276 -0.15804271 0.04304102 0.111639574 -0.057957016
00000000: ed69 a33d 271a 003e cdf0 62bd bf6d 18be
00000010: b97d 3ebd 23cb cb3d c90c 623d 8446 d7bd
00000020: c85e 6e3d bd70 19be 73d6 e5bc 7adf c73d
00000030: 919c d93c edee 173e 056d bf3d 1297 d4bc
00000040: e07c 0c3d 30a6 2e3c 20a6 da3d 1d0c 5e3e
00000050: 13a1 a9bd 6c44 063e 3302 adbd 7179 22be
00000060: b117 043e 59d5 0f3e 3309 343e 21f9 47bd
00000070: 53a6 123b f7c0 14be 7366 ef3d a9a9 6abd
00000080: fd87 0cbd 41a1 2abe 70e5 413d 5b58 143e
00000090: 7326 d83d 77b3 513d a71c a23c 2e16 18be
000000a0: 6310 ea3b 5030 46bc 8c42 ca3d be34 eabd
000000b0: 03a0 cebd fe66 0e3e 3019 2c3d 41e5 9b3c
000000c0: c563 423d 422a 11be 7e63 3b3d cc2c e3bd
000000d0: d6a2 a13d 87c3 9bbc 0fd4 40bd ecbd da3d
000000e0: c8d2 7bbd 1618 cdbd 97ca 01bd cebc 2cbd
000000f0: 47ee f23c ad48 05be ae03 153d 5c5d 3dbd
00000100: 4f52 973d 4d62 0e3d c9ef 003e 3730 6e3c
00000110: a8f5 e93d 89e1 6c3d f1ae fbbc 4985 d4bc
00000120: 9c11 223e 7723 e43d 8efa 3fbc e45f 2c3d
00000130: 4be0 3ebd aacb c7bc d3b8 153e c784 f93d
00000140: b8a2 e13c 5a2f b03d f437 9d3b b9ed fabc
00000150: 41c7 d13d d180 2d3d 3b3c 0abd 8eac 913d
00000160: f68a 833c 4896 453d ed10 0e3e 8aed 383c
00000170: 12e3 ebbc a052 05be e2e4 d63d e874 98bc
00000180: cbb0 c03d fb05 82bd fccd 7d3d 6c30 6bbe
00000190: 95a3 d33d 279f 5dbd 8413 fd3d b299 973c
000001a0: 0def d03d b5ff 4abe 28f8 e83d ce11 f53c
000001b0: 09b1 e33d c25a bebd 76d2 b2bd 3b36 2dbe
000001c0: 7fb2 c13d f786 983c 3b5f c23d fbce 153b
000001d0: 6274 173d 3885 bebd 04c5 b63d f2e2 a83c
000001e0: 94e0 b43d ed89 423d b532 d43d ad17 91bd
000001f0: f678 9ebb 3a14 73bc 8bc0 2a3d 8253 233d
00000200: 09a0 f4bc fa64 b2bd d4e5 aa3d 0eea 73bd
00000210: 358c 83bc 372d eb3c 3539 d53c 2852 26be
00000220: 0528 32bd 77a6 903d 5929 9abd 950a 4dbd
00000230: 4527 933d 16f5 f0bd f4f2 1ebc 62d5 bcbb
00000240: fc08 c3bd 92de 13ba 7f91 cdbd bde9 49bc
00000250: d5c6 103c 4f9a 2d3d 3c00 3dbd 3138 853c
00000260: 763e 9439 d121 babd 3e3d a03c 1881 b5bc
00000270: e83c d6bc 4511 4d3c 2259 b5bd 04b2 bebd
00000280: 1b5a ce3c 7253 a5bd 73a8 7dbd eb46 e2bc
00000290: a27e d53d 1ca4 ac3d e48b b23d ac79 f73d
000002a0: 9e71 c93c f14c 22bc fb27 853d cfef 60bd
000002b0: 921c 6d3d 0fab eb3d 4f71 903d f736 b63d
000002c0: 4649 5f3c 3963 79bd f1a1 3f3d 75d3 0cbd
000002d0: d420 2b3d 4bd4 68bd a0e5 01be 343e 1a3c
000002e0: dd75 4e3d de95 89bd faab 6dbd b151 933b
000002f0: a75f 9c3d 9223 05bd 4ffd 9bbc d5b6 503d
00000300: ba0d 19be beaa d5bc 2274 5d3d 60ff 5ebd
00000310: 82f1 293c abf7 bbba bb3f 2dbe 2228 6cbc
00000320: 7a08 83bc a24d 1bbc 5220 1e3d 1da6 f03d
00000330: df86 38be 85b3 773d eea7 84bd e44a f03d
00000340: 0b1c aabb fb88 78bd 7828 34be df68 d23d
00000350: 6760 cb3d f01a a7bb ca5d 413c 779c a43b
00000360: 6b17 70bd 40e4 45be 4466 d8bb fe2f debd
00000370: 0953 d63d dacb 27be ffe2 f6bc f900 96be
00000380: 8f58 18bd 9983 e73d e09f 8c3d bf7d 203e
00000390: 38da 8b3d 4fc0 383d 623e 77bc b3fc e13d
000003a0: 05bf 13bd d9d1 00bc 90da a83d acfe 263d
000003b0: ec40 dabc 65b3 b53d 6228 b43d 1e9f c2bd
000003c0: 991b 7e3d 3b54 413d 3323 17be d9e4 e3bd
000003d0: d3a2 df3d b04e 2abe a760 8ebd 50f0 bbbc
000003e0: 9e9f 213e 0b09 153e 5c2b 893d b3e3 48bd
000003f0: f3d5 21be c84b 303d 4aa3 e43d 5664 6dbd

sequential_1/conv2d/StatefulPartitionedCall/StatefulPartitionedCall/Conv2D_bias f4 [6]
-0.0044730464 -0.0015919193 0.01748903 0.0189651 0.00087990606 -0.010951171
00000000: a292 92bb f3a7 d0ba 2745 8f3c b35c 9b3c
00000010: 7fa9 663a 8a6c 33bc

sequential_1/dense_3/StatefulPartitionedCall/StatefulPartitionedCall/MatMul/ReadVariableOp/transpose i1 [1024, 432] scale=0.0034523977 zero_point=0
-0.04488117 0.034523975 0.04142877 0.05869076 0.055238362 0.0 0.0 -0.017261988
-0.017261988 0.1553579 -0.0034523977 0.0069047953 -0.04488117 0.020714385 0.06904795 0.04488117
0.051785965 -0.08630994 -0.013809591 0.024166783 0.0 0.034523975 0.037976373 -0.0034523977
-0.08976234 0.0034523977 0.037976373 0.055238362 0.048333567 -0.03107158 0.017261988 0.048333567
0.034523975 0.037976373 0.034523975 0.037976373 -0.04142877 0.075952746 0.10011953 0.11738152
-0.079405144 -0.06904795 -0.05869076 0.07250035 0.06559555 0.11738152 0.020714385 -0.1450007
-0.10011953 -0.020714385 0.04142877 0.010357193 0.048333567 -0.093214735 -0.048333567 0.08285754
0.04488117 0.075952746 -0.03107158 -0.06904795 -0.03107158 0.0034523977 0.051785965 0.093214735
0.03107158 -0.07250035 -0.024166783 0.055238362 0.11392912 0.07250035 -0.027619181 -0.08630994
0.0034523977 0.12773871 0.017261988 0.10702433 -0.037976373 0.04488117 -0.08976234 0.037976373
0.051785965 -0.0034523977 0.07250035 -0.048333567 -0.03107158 0.0069047953 0.07250035 0.06904795
0.07250035 -0.055238362 0.048333567 0.075952746 0.055238362 0.08630994 -0.048333567 0.010357193
-0.075952746 -0.010357193 0.055238362 0.034523975 0.027619181 -0.037976373 -0.037976373 0.06904795
0.08285754 -0.0034523977 0.06214316 0.017261988 -0.055238362 0.0034523977 -0.06214316 0.013809591
-0.024166783 0.0 -0.04142877 0.0034523977 0.013809591 0.037976373 0.03107158 0.024166783
-0.017261988 -0.013809591 -0.027619181 -0.04488117 0.079405144 -0.017261988 -0.10702433 -0.020714385
0.027619181 -0.03107158 0.020714385 -0.06559555 -0.093214735 -0.08630994 -0.04488117 0.013809591
-0.034523975 -0.010357193 -0.08976234 -0.08630994 0.06559555 -0.010357193 0.037976373 0.051785965
0.017261988 0.010357193 0.04142877 -0.03107158 -0.0034523977 -0.027619181 -0.0034523977 0.051785965
0.024166783 0.013809591 0.034523975 -0.013809591 0.037976373 0.027619181 0.055238362 -0.03107158
0.05869076 -0.05869076 -0.048333567 0.051785965 0.093214735 -0.017261988 0.017261988 0.020714385
0.020714385 0.0034523977 0.08285754 -0.03107158 0.051785965 0.04488117 -0.06559555 0.0069047953
0.034523975 0.055238362 -0.0069047953 0.017261988 0.0 0.010357193 -0.04142877 -0.0034523977
-0.0069047953 -0.010357193 -0.013809591 0.037976373 -0.03107158 0.04488117 0.017261988 0.034523975
0.04488117 0.0 -0.013809591 0.027619181 0.010357193 -0.06214316 -0.017261988 0.04142877
-0.07250035 0.0069047953 0.034523975 0.0069047953 -0.04142877 0.06214316 -0.0034523977 -0.034523975
0.037976373 0.027619181 0.024166783 -0.010357193 -0.06559555 0.037976373 0.051785965 0.034523975
-0.055238362 -0.03107158 -0.017261988 0.010357193 -0.048333567 0.0034523977 -0.06214316 0.024166783
-0.027619181 -0.051785965 0.024166783 0.10011953 -0.06214316 0.0 -0.075952746 -0.04488117
0.051785965 0.04142877 -0.04488117 0.03107158 -0.0069047953 -0.0069047953 -0.027619181 0.10011953
-0.079405144 -0.04142877 -0.05869076 -0.048333567 0.05869076 0.08976234 -0.0069047953 0.04488117
-0.0034523977 0.037976373 -0.037976373 0.051785965 0.04142877 0.037976373 -0.051785965 0.027619181
00000000: f30a 0c11 1000 00fb fb2d ff02 f306 140d
00000010: 0fe7 fc07 000a 0bff e601 0b10 0ef7 050e
00000020: 0a0b 0a0b f416 1d22 e9ec ef15 1322 06d6
00000030: e3fa 0c03 0ee5 f218 0d16 f7ec f701 0f1b
00000040: 09eb f910 2115 f8e7 0125 051f f50d e60b
00000050: 0fff 15f2 f702 1514 15f0 0e16 1019 f203
00000060: eafd 100a 08f5 f514 18ff 1205 f001 ee04
00000070: f900 f401 040b 0907 fbfc f8f3 17fb e1fa
00000080: 08f7 06ed e5e7 f304 f6fd e6e7 13fd 0b0f
00000090: 0503 0cf7 fff8 ff0f 0704 0afc 0b08 10f7
000000a0: 11ef f20f 1bfb 0506 0601 18f7 0f0d ed02
000000b0: 0a10 fe05 0003 f4ff fefd fc0b f70d 050a
000000c0: 0d00 fc08 03ee fb0c eb02 0a02 f412 fff6
000000d0: 0b08 07fd ed0b 0f0a f0f7 fb03 f201 ee07
000000e0: f8f1 071d ee00 eaf3 0f0c f309 fefe f81d
000000f0: e9f4 eff2 111a fe0d ff0b f50f 0c0b f108

sequential_1/dense_3/StatefulPartitionedCall/StatefulPartitionedCall/MatMul_bias f4 [1024]
-0.026469052 -0.00012247343 -0.006832861 0.017075505 -0.011340215 -0.031536877 -0.01961866 -0.015403929
-0.017062837 -0.013810727 -0.0043233307 0.030742727 -0.02497204 0.0009968989 0.029025864 -0.00826907
-0.0022141966 -0.009066194 0.0029534576 -0.01104275 0.01946445 -0.031397983 -0.01586593 -0.00460487
-0.013844231 0.00033367085 -0.009540758 0.05267439 -0.0042068926 -0.01012598 0.020753196 0.015851846
-0.008442945 -0.0019910084 -0.0055326 0.028242389 -0.009443922 0.013615832 -0.0124184 0.022981588
-0.018323947 -0.0091273775 -0.004826551 0.041025087 -0.012170175 -0.012669021 -0.0024523383 0.008327537
-0.0033428897 0.015311279 0.058161993 -0.008356952 -0.0024516606 -0.017996747 -0.00040589966 -0.013292285
0.015149786 0.04184082 0.029390218 -0.0073755407 0.0100086825 0.043549698 0.028347844 -0.00807508
0.029043414 -0.032114163 -0.0061066085 -0.004964844 0.017045515 -0.020208038 0.0 0.015379587
-0.03335248 -0.010982381 0.023506427 0.017975325 0.038583785 -0.0034771874 -0.01024708 -0.01839895
-0.0012099578 0.005955481 -0.0057882 -0.007990728 0.02989748 -0.03439927 0.03662121 0.05699192
0.0 0.043739766 -0.011646769 0.016167073 -0.008146779 0.010457851 -0.014710339 -0.036622737
-0.012736584 -0.012311235 -0.0088103125 0.040082563 -0.012940545 -0.010457998 -0.008802495 -0.015184425
-0.0037539012 -0.006144981 -0.027193742 -0.0078056096 0.010121549 -0.005994501 -0.022334868 0.022220407
-0.026647259 -0.00216624 -0.008315717 -0.008333291 -0.02663845 -0.005606327 0.017366787 -0.0077203987
0.0052771117 0.019124573 -0.008587213 0.020733302 -0.0059421826 -0.006116735 0.0012222374 0.0
-0.010367954 0.029895233 -0.02290354 0.0 0.02458389 0.0 0.0015968301 -0.0015798137
-0.015335882 0.035509586 0.015295766 -0.008405476 -0.007374149 0.03869383 0.00092432403 0.00782511
0.033068098 0.030843835 0.016025461 0.018899197 -0.015254274 -0.008468231 -0.0057929736 -0.017315146
0.04951059 -0.0019000114 -0.008724106 -0.005176652 0.01611703 -0.010623494 -0.0060965507 0.020871237
0.0 0.026843606 0.015236634 -0.03464492 -0.0033730874 -0.0123581 -0.006399528 0.024775082
-0.009769146 0.0031097967 -0.0049469983 -0.007735727 0.014112068 -0.023947949 0.04376803 0.03321381
0.02994567 -0.031789906 -0.010677544 -0.007441263 0.040760864 0.0025195612 0.009500021 0.05728325
0.0 -0.013371559 -0.0073878895 -0.0068495367 -0.009287743 0.0060178707 -0.016114615 -0.0074565136
-0.0076123225 0.009907532 -0.008069156 0.01998825 -0.00814391 0.023223108 -0.010551116 0.031050472
-0.025096927 -0.011045863 -0.008993558 -0.0014112585 0.017677778 0.0 -0.010969141 0.055385504
-0.031983893 -0.004231892 -0.00558883 0.03217424 -0.0066488623 0.022075398 0.037619364 0.015096412
0.027582709 0.030930929 -0.0063279937 0.017680544 -0.013364155 0.018864231 -0.019185416 -0.006833339
-0.010092758 0.010149297 0.006776569 0.003647598 -0.02471933 0.008817436 0.036003847 -0.033932157
0.011998815 0.020281402 0.019207792 -0.0050758123 0.0036277724 0.03431619 -0.017319607 0.025343275
0.0057804035 0.01080237 0.008619626 -0.0071358434 0.0027587942 -0.00910528 -0.005772519 -0.014676776
-0.011699717 0.008416854 -0.03757676 -0.009130138 0.0 -0.0070421854 -0.021936476 -0.0075189527
00000000: a0d5 d8bc 366c 00b9 31e6 dfbb eee1 8b3c
00000010: 4fcc 39bc d02c 01bd 50b7 a0bc c360 7cbc
00000020: 5dc7 8bbc 6346 62bc baaa 8dbb 2cd8 fb3c
00000030: 2a92 ccbc 60aa 823a a6c7 ed3c fe7a 07bc
00000040: 0e1c 11bb 608a 14bc cc8e 413b a7ec 34bc
00000050: e973 9f3c 2c9b 00bd 44f9 81bc 73e4 96bb
00000060: ead2 62bc 8bf0 ae39 d750 1cbc 1ac1 573d
00000070: f9d9 89bb 70e7 25bc 9b02 aa3c bbdb 813c
00000080: 4754 0abc 947b 02bb d04a b5bb 955c e73c
00000090: aeba 1abc f014 5f3c 8b76 4bbc e243 bc3c
000000a0: 1a1c 96bc ff8a 15bc 0b28 9ebb ec09 283d
000000b0: 6a65 47bc ba91 4fbc 69b7 20bb 3970 083c
000000c0: 6214 5bbb 29dc 7a3c 453b 6e3d 99eb 08bc
000000d0: 0aac 20bb ea6d 93bc eece d4b9 e2c7 59bc
000000e0: cf36 783c 4861 2b3d c1c3 f03c 85ae f1bb
000000f0: 75fb 233c 2b61 323d bd39 e83c 574d 04bc
00000100: 74ec ed3c 248a 03bd f219 c8bb 21b0 a2bb
00000110: 09a3 8b3c 548b a5bc 0000 0000 aafa 7b3c
00000120: 9c9c 08bd 72ef 33bc 8d90 c03c fd40 933c
00000130: 080a 1e3d 86e1 63bb 5ee3 27bc 65b9 96bc
00000140: 7297 9eba 3226 c33b f1aa bdbb 8beb 02bc
00000150: 8feb f43c 40e6 0cbd 1f00 163d 5c70 693d
00000160: 0000 0000 7828 333d 17d2 3ebc cf70 843c
00000170: 117a 05bc 6857 2b3c a203 71bc b901 16bd
00000180: 1bad 50bc 10b5 49bc 2159 10bc 9d2d 243d
00000190: 9404 54bc 0658 2bbc 5738 10bc 18c8 78bc
000001a0: 0304 76bb d65b c9bb 69c5 debc 33c6 ffbb
000001b0: dad4 253c 856d c4bb 9df7 b6bc 9207 b63c
000001c0: 5a4b dabc 7af7 0dbb a53e 08bc 5b88 08bc
000001d0: e138 dabc 48b5 b7bb cb44 8e3c 66fb fcbb
000001e0: 9feb ac3b 23ab 9c3c 62b1 0cbc e3d8 a93c
000001f0: a4b6 c2bb e46e c8bb 7b33 a03a 0000 0000
00000200: 5ade 29bc d9e6 f43c 34a0 bbbc 0000 0000
00000210: 2764 c93c 0000 0000 ba4c d13a c011 cfba
00000220: 5a43 7bbc 8072 113d 189b 7a3c 1fb7 09bc
00000230: d8a2 f1bb 6c7d 1e3d 564e 723a e434 003c
00000240: 6a72 073d 36ac fc3c d447 833c 7dd2 9a3c
00000250: 10ed 79bc 56be 0abc fcd2 bdbb 7ed8 8dbc
00000260: 9ecb 4a3d ce09 f9ba 8def 0ebc e8a0 a9bb
00000270: dd07 843c 2a0e 2ebc 93c5 c7bb 28fa aa3c
00000280: 0000 0000 1fe7 db3c 13a3 793c d5e7 0dbd
00000290: 040f 5dbb a179 4abc 22b3 d1bb 1df5 ca3c
000002a0: c50e 20bc bbcd 4b3b 6e1a a2bb fb7b fdbb
000002b0: 4e36 673c 7d2e c4bc 1b46 333d 340b 083d
000002c0: 9f50 f53c 2236 02bd def0 2ebc d7d5 f3bb
000002d0: ddf4 263d 391f 253b faa5 1b3c d7a1 6a3d
000002e0: 0000 0000 6214 5bbc 1c16 f2bb 1472 e0bb
000002f0: 9e2b 18bc 8f31 c53b cc02 84bc c555 f4bb
00000300: ca70 f9bb 3353 223c 7e34 04bc 66be a33c
00000310: 096e 05bc 633e be3c 97de 2cbc 8f5d fe3c
00000320: 1298 cdbc b5f9 34bc b759 13bc faf9 b8ba
00000330: fdd0 903c 0000 0000 e9b7 33bc e9db 623d
00000340: 8b01 03bd afab 8abb 8122 b7bb 23c9 033d
00000350: b3de d9bb 77d7 b43c c316 1a3d f156 773c
00000360: 22f5 e13c dc62 fd3c 0f5b cfbb cad6 903c
00000370: 54f5 5abc 2989 9a3c bc2a 9dbc 34ea dfbb
00000380: 185c 25bc 3d49 263c fb0d de3b 8a0c 6f3b
00000390: 3180 cabc 0277 103c c578 133d 72fc 0abd
000003a0: ae96 443c 2f25 a63c a959 9d3c 0053 a6bb
000003b0: ecbf 6d3b 228f 0c3d d9e1 8dbc b39c cf3c
000003c0: 8a69 bd3b 6cfc 303c 5539 0d3c cbd3 e9bb
000003d0: e3cc 343b 502e 15bc 6627 bdbb dc76 70bc
000003e0: 2bb0 3fbc d8e6 093c 17ea 19bd 9396 15bc
000003f0: 0000 0000 22c2 e6bb 20b4 b3bc 8c61 f6bb

sequential_1/dense_4/StatefulPartitionedCall/StatefulPartitionedCall/MatMul/ReadVariableOp/transpose i1 [12, 1024] scale=0.0036706286 zero_point=0
0.040376917 -0.1541664 0.09543634 -0.09543634 -0.06607132 0.08442446 0.06974194 0.062400687
0.03303566 0.09543634 -0.13948388 -0.124801375 0.0256944 0.06974194 -0.1541664 0.040376917
0.05505943 -0.02936503 -0.040376917 -0.036706287 -0.08075383 0.0073412573 0.073412575 0.05505943
0.099106975 -0.062400687 -0.08442446 -0.10644823 0.02936503 0.02936503 -0.21289647 -0.10644823
-0.04771817 0.06974194 -0.014682515 -0.1027776 0.09176572 -0.0073412573 -0.044047542 -0.0073412573
-0.09176572 0.0513888 0.014682515 0.022023771 0.11378949 0.03303566 -0.062400687 0.05505943
-0.014682515 -0.12113074 0.022023771 -0.018353144 0.0 0.0770832 0.0110118855 0.0036706286
-0.22757898 -0.256944 -0.11011886 -0.0513888 0.09543634 -0.11011886 0.08075383 -0.014682515
-0.06974194 0.040376917 0.0073412573 0.073412575 -0.1541664 0.062400687 -0.044047542 0.040376917
0.0 0.0110118855 -0.15783703 -0.0073412573 -0.1027776 0.036706287 -0.0110118855 0.02936503
0.10644823 -0.0513888 0.02936503 0.0256944 -0.0770832 0.0036706286 -0.13948388 -0.1798608
-0.05873006 -0.08075383 0.0256944 0.08075383 0.03303566 0.0256944 0.040376917 0.0256944
-0.05505943 0.0 -0.09176572 0.044047542 0.0256944 0.018353144 -0.02936503 0.0
0.06974194 -0.0036706286 0.02936503 -0.09543634 -0.04771817 -0.014682515 0.09543634 0.036706287
0.0073412573 0.088095084 0.09543634 -0.0513888 0.04771817 0.0110118855 -0.13948388 0.0073412573
-0.0036706286 -0.062400687 -0.018353144 -0.14682515 0.04771817 0.08075383 -0.022023771 -0.044047542
-0.014682515 -0.11378949 0.02936503 -0.014682515 -0.16884892 -0.018353144 0.0513888 0.09176572
0.0 -0.15049577 0.018353144 0.02936503 0.022023771 -0.16517828 -0.02936503 -0.06607132
-0.22757898 -0.022023771 0.11011886 0.044047542 0.0036706286 0.04771817 -0.06974194 0.06974194
-0.16884892 0.062400687 -0.0256944 0.0 -0.08442446 0.018353144 -0.05873006 -0.0513888
-0.04771817 -0.0073412573 -0.10644823 0.04771817 0.03303566 -0.0073412573 0.04771817 -0.13948388
-0.0110118855 -0.04771817 0.05505943 -0.05873006 0.03303566 0.073412575 -0.073412575 0.022023771
-0.099106975 0.018353144 0.0073412573 -0.014682515 -0.022023771 -0.08075383 -0.018353144 0.03303566
-0.014682515 0.02936503 -0.06607132 -0.036706287 -0.062400687 -0.088095084 0.08442446 -0.0110118855
-0.044047542 0.099106975 0.0 0.128472 0.05505943 -0.014682515 -0.03303566 0.014682515
0.0513888 -0.0036706286 0.05505943 0.09176572 -0.02936503 0.05873006 -0.08442446 -0.09543634
0.08075383 0.036706287 0.05873006 -0.11746012 -0.06607132 0.09543634 -0.05873006 -0.13948388
-0.1027776 -0.26428527 -0.02936503 0.03303566 0.0513888 -0.25327337 0.0513888 0.02936503
-0.022023771 0.0110118855 -0.12113074 0.10644823 0.0073412573 -0.014682515 0.0073412573 -0.022023771
0.044047542 -0.036706287 -0.0770832 -0.04771817 0.04771817 -0.11746012 -0.05873006 -0.0256944
-0.0073412573 -0.08442446 0.088095084 0.014682515 -0.088095084 -0.0256944 -0.062400687 -0.0256944
-0.0513888 0.014682515 -0.018353144 -0.062400687 -0.0513888 0.05873006 -0.0036706286 -0.04771817
00000000: 0bd6 1ae6 ee17 1311 091a dade 0713 d60b
00000010: 0ff8 f5f6 ea02 140f 1bef e9e3 0808 c6e3
00000020: f313 fce4 19fe f4fe e70e 0406 1f09 ef0f
00000030: fcdf 06fb 0015 0301 c2ba e2f2 1ae2 16fc
00000040: ed0b 0214 d611 f40b 0003 d5fe e40a fd08
00000050: 1df2 0807 eb01 dacf f0ea 0716 0907 0b07
00000060: f100 e70c 0705 f800 13ff 08e6 f3fc 1a0a
00000070: 0218 1af2 0d03 da02 ffef fbd8 0d16 faf4
00000080: fce1 08fc d2fb 0e19 00d7 0508 06d3 f8ee
00000090: c2fa 1e0c 010d ed13 d211 f900 e905 f0f2
000000a0: f3fe e30d 09fe 0dda fdf3 0ff0 0914 ec06
000000b0: e505 02fc faea fb09 fc08 eef6 efe8 17fd
000000c0: f41b 0023 0ffc f704 0eff 0f19 f810 e9e6
000000d0: 160a 10e0 ee1a f0da e4b8 f809 0ebb 0e08
000000e0: fa03 df1d 02fc 02fa 0cf6 ebf3 0de0 f0f9
000000f0: fee9 1804 e8f9 eff9 f204 fbef f210 fff3

sequential_1/dense_4/StatefulPartitionedCall/StatefulPartitionedCall/MatMul_bias f4 [12]
-0.009333605 -0.013175774 -0.023110997 0.020162104 0.010135824 0.019430095 0.006934317 0.0009919549
0.005207281 -0.0031076 -0.00038106504 -0.009202604
00000000: faeb 18bc 34df 57bc 4653 bdbc ff2a a53c
00000010: ba10 263c dd2b 9f3c 4439 e33b 7c04 823a
00000020: d7a1 aa3b e0a8 4bbb afc9 c7b9 85c6 16bc
