AndroidApp/app/src/main/assets/model_transfer_learning/bottleneck.tflite (tflite, 2608 bytes, 2 tensors)

StatefulPartitionedCall/model/conv2d/StatefulPartitionedCall/StatefulPartitionedCall/Conv2D/ReadVariableOp f4 [1, 10, 4, 4]
0	0xbe2f54fe	-0.17122266
1	0xbdfb8d56	-0.12282817
2	0x3e20d29f	0.15705346
3	0x3e270db9	0.16313829
4	0xbe1dc8be	-0.15408608
5	0xbc284f78	-0.010272853
6	0x3cb76872	0.02238867
7	0x3daf82bb	0.08569857
8	0xbde83bd9	-0.1133954
9	0x3d8a52b3	0.06754055
10	0xbdafdeb6	-0.085874006
11	0x3e0564e4	0.13026768
12	0x3cd6f4cb	0.026239773
13	0x3ce5beac	0.028045021
14	0xbdaf457b	-0.08558174
15	0xbd8a025c	-0.06738731
16	0x3b2786f3	0.0025562614
17	0x3dc8afb0	0.09799135
18	0x3a3c2cd6	0.0007178312
19	0x3e1c35ab	0.15254848
20	0xbccd34e8	-0.025049642
21	0x3cd6ab28	0.02620466
22	0x3d764494	0.060123995
23	0xbe0df752	-0.13863876
24	0x3e20adce	0.15691301
25	0xbd80376b	-0.0626057
26	0x3c295e31	0.010337398
27	0x3db52f41	0.088469036
28	0xbe11d8ed	-0.14242907
29	0xbe026ab8	-0.12736022
30	0xbe263db1	-0.16234471
31	0xbe1a9547	-0.15096007
32	0xba036fe5	-0.0005013927
33	0x3e11ad4a	0.14226261
34	0x3d389da5	0.045072217
35	0xbdf0c29c	-0.11755869
36	0xbdc3042d	-0.09522281
37	0x3e08de24	0.1336599
38	0x3db4957d	0.08817575
39	0xbe1f384d	-0.15548821
40	0x3b9153fd	0.004435061
41	0x3d744a2c	0.05964105
42	0x3e1b93e7	0.15193139
43	0x3cd0e781	0.025501015
44	0xbdfdea3d	-0.12398193
45	0x3d71ad7a	0.05900333
46	0xbe1d260a	-0.15346542
47	0xbd80c14e	-0.0628687
48	0x3d9d5f58	0.07684201
49	0x3e080daa	0.13286462
50	0x3c5921ce	0.013252689
51	0x3d20e8bc	0.039284453
52	0xbd005558	-0.03133139
53	0x3c58c65d	0.013230887
54	0x3df3c52e	0.119028434
55	0x3c77fa6e	0.015135391
56	0x3c8e2532	0.01735172
57	0x3d31dfec	0.04342644
58	0x3da358a4	0.07975891
59	0x3db8378e	0.08994971
60	0xbc9d6413	-0.019212758
61	0x3d5322d2	0.05154688
62	0xbdea22eb	-0.11432441
63	0x3c0e6197	0.008690259
64	0xbdb3e878	-0.08784574
65	0xbd9ba999	-0.076007076
66	0x3db23ed3	0.08703389
67	0x3e0ae83a	0.1356515
68	0xbb3b2611	-0.0028556625
69	0x3cbfc2bc	0.023408286
70	0xbe11a80a	-0.14224258
71	0xbc6f5e37	-0.014609865
72	0x3e26fba6	0.16306934
73	0xbe1f5e34	-0.1556328
74	0x3e03dc96	0.12877116
75	0xbcf937e9	-0.030422168
76	0x3dad5a1a	0.08464451
77	0xbe2ce214	-0.16883117
78	0xbd1e3dca	-0.038633145
79	0xbd11591c	-0.035485372
80	0xbd228191	-0.039674345
81	0xbd968817	-0.07350176
82	0xbcc61322	-0.024179045
83	0x3cf4d29f	0.029885588
84	0xbc048923	-0.008089337
85	0xbd25fffa	-0.04052732
86	0xbe355a46	-0.17710218
87	0xbdddeec0	-0.108365536
88	0x3e22c17b	0.1589412
89	0x3e2417ac	0.16024655
90	0x3d116493	0.035496306
91	0xbba3a726	-0.004994291
92	0xbe1b6a6d	-0.15177317
93	0x3dc1bb6c	0.09459576
94	0x3ca12deb	0.019675216
95	0xbdbbe985	-0.091754
96	0xbe06dc64	-0.1317001
97	0xbdd6364b	-0.10459574
98	0xbcfb4b0c	-0.030675434
99	0x3beb89ab	0.007188042
100	0x3b84aa4c	0.0040486213
101	0x3cf3b208	0.029747978
102	0x3e07f8cc	0.13278502
103	0x3dbb4d53	0.09145608
104	0x3c66a7e1	0.014078111
105	0xbb7bad0a	-0.00384027
106	0xbc82e7dd	-0.015979702
107	0xbde53d0a	-0.11193283
108	0x3d0a6b2e	0.03379362
109	0xbd811f55	-0.06304804
110	0x3d2c6419	0.042087648
111	0x3bb72516	0.005589138
112	0xbe1c880d	-0.15286274
113	0x3d3900da	0.045166828
114	0xbca0c7e9	-0.019626575
115	0x3ce48ec2	0.027900103
116	0x3da52803	0.08064272
117	0x3e2b7073	0.16742115
118	0xbc436aba	-0.011927301
119	0xbe0318b9	-0.128024
120	0xbcfeed01	-0.031118872
121	0xbca7b1e2	-0.020470563
122	0x3dd7eda3	0.105433725
123	0xbe10c1a8	-0.14136374
124	0xbd34f4f4	-0.044178918
125	0x3d96986e	0.073532924
126	0x3dee3249	0.11630685
127	0xbdd7860f	-0.105236165
128	0xbe26380d	-0.16232319
129	0xbdf449b3	-0.119281195
130	0xbcec9777	-0.028880818
131	0xbe04e75c	-0.12978882
132	0x3cb17efc	0.021666996
133	0x3e38ba15	0.18039735
134	0xbd3dd796	-0.046348177
135	0x3d156a6d	0.03647845
136	0xbe061bd9	-0.1309656
137	0x3cda0e5a	0.026618171
138	0xbce36607	-0.027758611
139	0x3d9ccc46	0.076561496
140	0xbda949fe	-0.08266066
141	0x3d8cfcdd	0.06884167
142	0xbdddadf3	-0.10824194
143	0x3e29acb0	0.16569781
144	0x3d6c091f	0.057625886
145	0xbe0123cc	-0.12611312
146	0x3d4ffa93	0.050776076
147	0x3e3018a5	0.17196901
148	0xbdadbac9	-0.08482892
149	0x3e01ed1e	0.1268811
150	0xbd87a0a2	-0.06622435
151	0x3e18aaac	0.14908856
152	0xbddbcf1d	-0.10732863
153	0x3d8a77d2	0.06761135
154	0xbe148389	-0.14503302
155	0xbdd84446	-0.10559897
156	0x3d7c9fca	0.061675824
157	0x3d9db0ee	0.07699762
158	0x3e10621b	0.14099924
159	0x3c7d989a	0.015478278

StatefulPartitionedCall/model/conv2d/StatefulPartitionedCall/StatefulPartitionedCall/Conv2D_bias f4 [4]
0	0xbc29acea	-0.010356167
1	0xbc23035e	-0.009949533
2	0xbc3992e5	-0.011326526
3	0xbc900000	-0.017578125
