AndroidApp/app/src/main/assets/model_transfer_learning/bottleneck.tflite (tflite, 13256 bytes, 2 tensors)

StatefulPartitionedCall/model/conv1d_5/StatefulPartitionedCall/StatefulPartitionedCall/conv1d/ExpandDims_1 f4 [6, 1, 75, 6]
-0.015621662 -0.08090365 0.06471997 0.03804153 0.051340412 -0.019172398 0.061197646 -0.004545991
0.078865394 0.035312667 0.016955048 0.0004464942 -0.018473342 0.007621079 0.05638926 0.009040819
-0.0487682 0.035108093 0.04730354 0.05845495 0.039978355 -0.014083895 -0.07506066 0.013266838
-0.056475226 0.018283501 -0.04240789 -0.06589554 -0.052670572 0.002843056 0.030940384 0.06845091
0.03818713 -0.033576187 -0.074969485 -0.029517164 0.08714117 -0.03050136 0.075017646 -0.046003565
0.036395527 -0.0431776 0.0306429 -0.012831092 -0.029723499 0.026642144 -0.044308446 -0.01579449
0.09168361 0.029642567 -0.056672264 0.011700038 0.05283492 -0.004308986 -0.04357791 -0.046973117
-0.068053015 0.005983963 -0.0060219956 -0.06619882 -0.033404525 0.042060245 0.06259937 0.00079446053
-0.07648847 0.06372469 0.07252628 0.0439136 0.00044044564 0.049966276 -0.047502816 -0.014167729
-0.030931031 -0.016740989 0.007271361 0.008752291 -0.035198357 0.030456271 -0.054302927 0.05383081
-0.017479328 -0.0878992 -0.050856404 0.049902387 -0.05692793 0.01524629 -0.0021256937 -0.07987168
-0.05237101 0.06742129 0.03852163 0.07162631 -0.06643134 0.0172512 0.017159168 0.036489088
-0.03602809 -0.029163757 0.07633775 0.002843948 -0.024419421 -0.0058314516 -0.009278911 -0.08330808
0.07870143 0.041061442 0.07781733 -0.0004973636 -0.004093697 0.037766118 -0.041144066 0.053916026
0.05592917 -0.04234782 -0.05837454 0.011468959 -0.006167468 -0.023237118 -0.070319265 0.0037027816
-0.02419124 0.0563763 0.011663374 -0.059990156 0.0076134726 0.084720895 0.043247215 -0.07025502
0.0049854033 -0.052224014 0.013007455 0.059104394 0.021188844 0.012389285 -0.06318106 0.07337266
0.0020873945 -0.0027811055 -0.054904316 -0.0015227909 -0.043243878 -0.024250407 -0.061280858 -0.02070144
0.010152833 -0.0181215 -0.0741901 0.06996551 -0.061174937 0.009821411 -0.04560494 0.04684927
-0.017434059 -0.080379106 0.050235145 -0.0677321 -0.05239267 0.082203016 -0.016375402 0.024059907
0.021578692 0.061988194 -0.0113824075 -0.06576575 0.06506553 -0.04887911 0.07419019 0.020781877
-0.008116689 0.021137504 0.073447734 0.025655907 0.036271196 0.08451316 0.009288779 -0.050252113
0.012274093 -0.07512278 0.034620024 -0.07551445 -0.08617322 -0.00483939 0.02749771 -0.056776453
-0.06741201 0.035582677 -0.041008297 0.03424111 -0.06278304 -0.006249764 0.0027149578 0.07611641
0.051761154 0.03569079 0.04612863 -0.047057364 -0.007288136 0.017157687 -0.01938521 0.06443151
-0.0063733147 -0.039417874 0.021099593 0.05415845 0.0056728213 0.020039793 0.025990998 0.004056357
0.043559484 0.08329174 0.03207814 -0.062955014 -0.061295595 -0.03025413 0.0040680543 0.009337173
0.052586757 -0.041169684 -0.027805975 0.06447058 -0.057612993 0.008946989 -0.05802258 0.07259725
-0.031074606 0.0026660769 -0.02120351 -0.021013195 0.027217103 0.054589804 -0.0023517443 -0.032278337
-0.073928386 0.018740373 0.01425601 0.046312954 -0.0065800333 0.018736757 -0.00035155754 -0.06932305
0.028059257 -0.041592404 0.0032483698 0.015042325 -0.027648227 0.08234599 0.028849952 0.070878685
0.07005479 -0.08558465 0.06731139 -0.016091695 0.04349938 0.059733976 -0.041477762 -0.055410337
00000000: 00f2 7fbc d0b0 a5bd e78b 843d 6fd1 1b3d
00000010: 534a 523d 6f0f 9dbc 62aa 7a3d 89f6 94bb
00000020: 2e84 a13d 04a4 103d 50e5 8a3c 7017 ea39
00000030: 6855 97bc 3fba f93b 6df8 663d f11f 143c
00000040: 2ac1 47bd 81cd 0f3d 5bc1 413d 756e 6f3d
00000050: 58c0 233d 23c0 66bc 67b9 99bd 275d 593c
00000060: 9152 67bd 48c7 953c e5b3 2dbd 3ef4 86bd
00000070: 19bd 57bd 9152 3a3b b076 fd3c fe2f 8c3d
00000080: 1c6a 1c3d 2f87 09bd 9a89 99bd fbcd f1bc
00000090: 1277 b23d fddd f9bc daa2 993d 3c6e 3cbd
000000a0: 7a13 153d ffda 30bd d206 fb3c 8039 52bc
000000b0: b27e f3bc a040 da3c c67c 35bd 7263 81bc
000000c0: 9ec4 bb3d f8d4 f23c 2d21 68bd 84b1 3f3c
000000d0: 6e69 583d 6532 8dbb c07e 32bd e266 40bd
000000e0: 615f 8bbd 1f15 c43b 2954 c5bb 3f93 87bd
000000f0: 2fd3 08bd 5d47 2c3d 1934 803d 5843 503a
00000100: fda5 9cbd 1782 823d a988 943d bfde 333d
00000110: 9deb e639 70a9 4c3d 5092 42bd c31f 68bc
00000120: 1363 fdbc 6624 89bc 9944 ee3b c565 0f3c
00000130: 272c 10bd 6e7f f93c bf6c 5ebd b27d 5c3d
00000140: cf30 8fbc 7f04 b4bd ce4e 50bd 7266 4c3d
00000150: 432d 69bd 93cb 793c 394f 0bbb c393 a3bd
00000160: fc82 56bd 2c14 8a3d dbc8 1d3d d1b0 923d
00000170: 280d 88bd 6352 8d3c 6291 8c3c 9575 153d
00000180: 3192 13bd d5e8 eebc f756 9c3d 8861 3a3b
00000190: 3d0b c8bc c315 bfbb 9306 18bc 6d9d aabd
000001a0: 372e a13d 0b30 283d b15e 9f3d 8261 02ba
000001b0: 6b24 86bb a5b0 1a3d ae86 28bd 0dd7 5c3d
000001c0: fc15 653d e874 2dbd 241a 6fbd 4de8 3b3c
000001d0: 7918 cabb c55b bebc 8c03 90bd 5eaa 723b
000001e0: b52c c6bc d6ea 663d bc17 3f3c 3db8 75bd
000001f0: 707a f93b 2682 ad3d fe23 313d dde1 8fbd
00000200: 985c a33b d9e8 55bd 381d 553c 7317 723d
00000210: 3a94 ad3c 6dfc 4a3c 1265 81bd 6844 963d
00000220: abcc 083b 3543 36bb 59e3 60bd 6298 c7ba
00000230: 7e20 31bd caa8 c6bc a301 7bbd 1196 a9bc
00000240: 1158 263c 8a73 94bc fbf0 97bd 144a 8f3d
00000250: 9292 7abd fce9 203c 3fcc 3abd 05e5 3f3d
00000260: dfd1 8ebc cd9d a4bd 5ec3 4d3d 21b7 8abd
00000270: b299 56bd 0e5a a83d b525 86bc 4819 c53c
00000280: ccc5 b03c 55e7 7d3d 477d 3abc 32b0 86bd
00000290: 1441 853d 7635 48bd 07f1 973d c13e aa3c
000002a0: dcfb 04bc 8f28 ad3c c46b 963d 562c d23c
000002b0: 1b91 143d 3c15 ad3d f72f 183c 29d5 4dbd
000002c0: 4719 493c f9d9 99bd bacd 0d3d 52a7 9abd
000002d0: 967b b0bd bf93 9ebb e142 e13c 6d8e 68bd
000002e0: 4f0f 8abd 24bf 113d 51f8 27bd 6840 0c3d
000002f0: 6594 80bd d2ca ccbb 6fed 313b ece2 9b3d
00000300: 8103 543d 8130 123d 60f1 3c3d 39bf 40bd
00000310: 51d1 eebb 478e 8c3c bbcd 9ebc abf4 833d
00000320: 3dd7 d0bb a374 21bd 0ed9 ac3c 40d5 5d3d
00000330: 13e3 b93b 7e2a a43c 13eb d43c 30eb 843b
00000340: 6e6b 323d dc94 aa3d 5e64 033d 8fee 80bd
00000350: 1711 7bbd 82d7 f7bc 504d 853b f1fa 183c
00000360: 3665 573d 8ba1 28bd 5bc9 e3bc 2709 843d
00000370: 9afb 6bbd 6496 123c 16a9 6dbd dead 943d
00000380: 2c90 febc 59b9 2e3b fcb2 adbc dd23 acbc
00000390: 67f6 de3c 8f99 5f3d b91f 1abb 4a36 04bd
000003a0: c467 97bd 6985 993c 0a92 693c a7b2 3d3d
000003b0: 529d d7bb d47d 993c 4151 b8b9 3ef9 8dbd
000003c0: 87dc e53c cc5c 2abd 9ae2 543b 1574 763c
000003d0: 897e e2bc 04a5 a83d bc56 ec3c d828 913d
000003e0: e378 8f3d 0147 afbd 8eda 893d bbd2 83bc
000003f0: 682c 323d 9dab 743d 96e4 29bd f3f5 62bd

StatefulPartitionedCall/model/conv1d_5/StatefulPartitionedCall/StatefulPartitionedCall/conv1d_bias f4 [6]
-0.0040303287 -0.0063263313 -0.0072060684 -0.0037335018 -0.005985398 0.010374542
00000000: d910 84bb 1d4d cfbb e220 ecbb c4ad 74bb
00000010: 2821 c4bb fcf9 293c
