AndroidApp/app/src/main/assets/model_transfer_learning/bottleneck.tflite (tflite, 2608 bytes, 2 tensors)

StatefulPartitionedCall/model/conv2d/StatefulPartitionedCall/StatefulPartitionedCall/Conv2D/ReadVariableOp f4 [1, 10, 4, 4]
000000 4b 22 27 be ba 44 29 be 2a 5b cd bd ea ce 0d 3e
       -0.16321675 -0.16530123 -0.10027154 0.13848463
000010 3e a8 3e 3e ae 32 13 3e 17 6c 01 3e cf 7f 16 be
       0.18618867 0.14374802 0.12638889 -0.14697193
000020 72 38 e4 3d c8 0a f1 bd b1 63 88 bd c3 bd cd 3d
       0.111435786 -0.117696345 -0.066596396 0.1004596
000030 19 c3 e6 bd ab 22 cc bd a0 36 c5 bd f3 9b 00 3e
       -0.11267681 -0.0996755 -0.096295595 0.1255949
000040 4f ef 8a bd 9e 4b 28 be af 58 20 3e 05 65 11 3d
       -0.06783926 -0.16435096 0.1565883 0.03549673
000050 13 59 01 3e d5 99 bd 3c 37 ea 1a be 39 04 0b be
       0.12631635 0.023144642 -0.15128408 -0.1357583
000060 b1 a9 77 bd f2 e7 ac 3d dc ca ce bd 9c 9b 04 3d
       -0.060464565 0.084426776 -0.10097286 0.032374963
000070 7a 07 4e 3c 3c 7f 44 bd a6 c5 20 be 65 5c 22 3e
       0.012575025 -0.047972903 -0.15700397 0.15855558
000080 4b 8f b7 bd 9d a5 ae bd 23 ff 36 be 03 31 8a bd
       -0.08962878 -0.08527682 -0.17870764 -0.067476295
000090 4c da 40 3e cc c5 8f bc 3b ed 06 3e 91 9c 07 be
       0.18833274 -0.017550372 0.13176434 -0.13243319
0000a0 51 b5 05 bd 52 90 d2 3d 84 3b f2 bb 5e de d7 3c
       -0.03264362 0.10281433 -0.0073923487 0.02635115
0000b0 af 79 0d bd b8 35 a9 bd 3a a4 21 3e 2d 4e cb 3d
       -0.034539875 -0.08262199 0.15785304 0.0992702
0000c0 6e c7 21 3e 77 24 87 bd 67 6e fe 3d 4f 95 d1 bd
       0.15798733 -0.06598752 0.12423401 -0.102335565
0000d0 a8 1d d5 bd bf f0 3b 3d c1 1b 04 3e 2e f1 21 3d
       -0.10406047 0.04588389 0.12901212 0.039536647
0000e0 1a ea be bd 42 33 85 bc 8b 2e e2 3d 5a b9 c0 3d
       -0.09321995 -0.016259793 0.110440336 0.09410353
0000f0 2f 86 8f 3d 13 24 18 3e 45 fd dd 3d d3 d1 a1 bd
       0.07008015 0.14857511 0.10839323 -0.07901349
000100 d4 8d 0e be 18 9d 0e 3e 0a d6 83 bd 38 0c 46 3e
       -0.1392129 0.13927114 -0.06437309 0.19340599
000110 b5 8c 6c 3d e4 f9 5c bd 6d 12 a3 3d 0c e5 5e bd
       0.057751376 -0.05394925 0.07962499 -0.054417655
000120 55 b0 ed bd 4f a5 10 be 35 c2 1e 3e b9 d6 18 be
       -0.11605898 -0.1412556 0.15503772 -0.1492566
000130 c1 52 db 3b 6f d6 c2 3d 0a d0 1a be d8 27 f3 bd
       0.0066932146 0.09513556 -0.15118423 -0.11872834
000140 7b a8 e3 bd 71 61 b3 3d 10 fc 68 3c 36 83 37 3e
       -0.111161195 0.0875882 0.014220253 0.17921147
000150 2a e2 b0 bd 44 d2 c9 3c f6 ae 63 3d 0b fa ca bd
       -0.08636887 0.024636395 0.055586778 -0.09910973
000160 be 19 d3 bd ea 60 e8 3d 7c 61 0d be c8 c5 05 be
       -0.10307644 0.1134661 -0.13806719 -0.13063729
000170 25 11 0d 3e 47 10 aa bc 4e 96 d3 3d 3b 4e d0 bd
       0.13776071 -0.020759715 0.10331403 -0.10171171
000180 c9 52 ee bc c6 28 ea 3d 05 3b f7 3d 83 10 06 be
       -0.02909221 0.11433558 0.12071804 -0.13092236
000190 d0 5c b7 bd 7c 2b b4 3d c6 ee 19 3e c5 c8 9e 3c
       -0.089532495 0.087973565 0.15032491 0.019382844
0001a0 27 a2 0f 3e ad 9e 9c bd d9 8f b4 3d e2 ea a7 3d
       0.140267 -0.076474525 0.08816499 0.08199097
0001b0 e7 40 95 bb a1 6b 09 3e 1f ef fe bd 2d 7e 1d 3d
       -0.004554856 0.13419963 -0.124479525 0.03845041
0001c0 9a 87 68 3c aa 11 d5 3d 6b bf c9 3d 35 8f d5 bd
       0.014192486 0.1040376 0.09850963 -0.10427705
0001d0 3d 3e 2e 3e f4 30 f7 bc 04 74 10 3e c1 a2 1f be
       0.1701593 -0.03017471 0.14106756 -0.1558943
0001e0 d4 97 1a 3e 7e 90 a1 bc de 60 ae bd be cf d7 3d
       0.1509698 -0.01972222 -0.0851457 0.105376706
0001f0 92 b6 a2 bd 6d 11 0c 3e f4 d7 c8 bd f6 23 07 be
       -0.07944979 0.13678522 -0.09806815 -0.13197312
000200 f5 86 07 3e 63 20 77 3d 7a cd 24 be 1f 2c 34 3e
       0.13235076 0.06033362 -0.16094008 0.17594956
000210 01 f6 ea bc c1 33 66 bc 91 6f f7 3d f4 63 1c bb
       -0.028681757 -0.014050425 0.120818265 -0.0023863288
000220 a7 2c 04 be d4 4f 15 3d 0b 1f 02 be bd b1 ce 3b
       -0.12907659 0.036453083 -0.12707154 0.006307809
000230 9b 5e a8 3d 71 65 56 3b b7 f2 f6 3c 34 84 cf 3d
       0.082211696 0.0032714272 0.030145032 0.101326376
000240 57 eb 8a 3d a7 e8 25 be dc de 39 3d b7 6a 24 3d
       0.06783169 -0.16202031 0.04537855 0.040140834
000250 a1 7a c6 3c f8 a2 c7 3d 96 e6 0c be ff 2a 3c be
       0.024228396 0.09747881 -0.13759837 -0.18375777
000260 31 2f be 3c a6 66 6d 3d 76 f9 77 3d 8d 4d 1c be
       0.023215862 0.05795922 0.06054064 -0.15263958
000270 df 17 4d bd cf 22 37 3d 8d 79 2d be 2e 81 7e bc
       -0.050071593 0.04471093 -0.16940899 -0.0155337285

StatefulPartitionedCall/model/conv2d/StatefulPartitionedCall/StatefulPartitionedCall/Conv2D_bias f4 [4]
000000 6d bf 75 bc ae 51 11 bd d0 d2 bd bc 03 df 89 bc
       -0.014999253 -0.035478286 -0.023171812 -0.016829973
