AndroidApp/app/src/main/assets/model_transfer_learning/bottleneck.tflite (tflite, 13256 bytes, 2 tensors)

StatefulPartitionedCall/model/conv1d_1/StatefulPartitionedCall/StatefulPartitionedCall/conv1d/ExpandDims_1 f4 [6, 1, 75, 6]
0.050682347 0.02863201 -0.04449879 0.03445638 0.025919253 0.006972812 0.12300013 0.009291233
-0.021444244 -0.027398532 -0.010063565 -0.0140523845 0.01599498 -0.1069067 -0.08410227 -0.06588577
0.07259256 0.032901768 0.13166355 -0.1064186 -0.052533686 0.044311676 0.09046795 -0.012271778
0.017910026 -0.007953857 0.058495313 -0.0538863 -0.023553861 0.0848231 0.11300703 -0.04080797
-0.08590696 0.023286566 0.08870897 0.093605824 0.030359946 0.021406434 0.024727419 0.017430672
0.0024855644 0.0011080282 0.101091154 -0.10782063 0.050161324 0.06903039 0.10273631 0.08646131
-0.06000603 -0.09788542 0.0400417 0.012657787 0.07551752 -0.010806139 0.04783258 -0.011645327
0.076922275 0.019921627 0.010237561 0.016102556 -0.021437943 -0.10959038 -0.04505113 0.05842849
0.045556653 -0.05224857 -0.017961372 0.037589096 0.023881512 0.06896397 0.009317402 -0.043406796
-0.041574776 -0.036667842 0.11528091 -0.012767315 -0.005283675 0.10167062 -0.013908949 -0.111615345
-0.017542407 0.00798664 0.03418471 -0.0059692212 -0.109942466 -0.024274692 -0.0015452642 -0.0023075538
0.03540573 -0.020118548 0.004934042 -0.025187802 0.09591457 -0.031151656 -0.03811123 0.10160332
-0.008401899 -0.036298282 -0.029285897 -0.052476164 0.0414537 -0.0007010072 -0.048910454 -0.07694497
0.024315568 0.07523376 0.045660883 0.017186528 -0.09280463 -0.028313464 0.10756043 0.04384522
-0.037676856 0.0010343323 -0.10778228 0.055497628 0.039333943 -0.009515734 0.06814258 0.03470434
0.009987598 0.020455722 0.09729701 0.08943012 -0.024423681 -0.022435158 -0.058184527 0.020569157
0.09834745 0.07316498 0.0755257 -0.030090462 -0.022540558 -0.053781625 -0.045056034 0.0135307
-0.060194615 -0.0038463061 -0.11031148 -0.084393166 0.06491465 0.09032728 -0.0030828423 -0.060961567
-0.0631195 -0.02985405 0.08906036 0.08310803 0.01855534 0.02721573 0.032808803 -0.0029935332
0.09907486 -0.011102999 -0.055023205 0.08647543 -0.07785488 -0.034644913 0.093611896 0.082959704
-0.061698545 0.05852076 -0.06673898 0.058293756 0.09885258 0.0808954 0.018517977 -0.03108997
0.0046948367 0.032418605 0.09334745 0.003101575 -0.074626945 -0.032248672 -0.03410991 0.028961262
0.08551463 -0.07949311 0.022850316 0.082609 -0.076546684 -0.06426403 0.10066355 0.010314882
-0.043667126 -0.05497382 -0.047851503 -0.07555538 0.08211687 0.0060765995 0.013917991 0.08900928
-0.00701357 -0.02911673 -0.022962816 -0.06727975 -0.037241057 0.010120059 -0.02004811 0.005044996
0.103497006 0.03615658 0.051254366 0.09228328 -0.11661113 0.02452313 0.04870208 -0.08115648
0.033325355 0.008854415 -0.1461974 0.002791865 0.103994764 -0.01712802 -0.011101106 -0.017881865
-0.094550885 0.005367062 0.07573121 -0.032560423 -0.01564739 0.051721584 -0.08853512 0.07171515
0.014342376 -0.029604001 -0.084302865 0.028620116 -0.07182209 -0.057561062 0.039292138 -0.13137579
0.024457105 0.09851943 -0.027297335 0.004036194 0.099565245 -0.110858746 0.019740302 -0.057106752
-0.06730762 0.0021302872 0.10403098 -0.05950382 -0.087651566 0.06055691 0.078174986 0.006004868
0.015809385 -0.016786806 -0.0066425907 -0.04671684 -0.0044992506 -0.067606054 0.057126127 -0.06990837
00000000: 4b98 4f3d ad8d ea3c 5d44 36bd 2222 0d3d
00000010: 9d54 d43c 307c e43b 7ee7 fb3d 413a 183c
00000020: d7ab afbc e372 e0bc a7e1 24bc f93b 66bc
00000030: e807 833c e6f1 dabd d03d acbd 1eef 86bd
00000040: 68ab 943d 01c4 063d cfd2 063e fff1 d9bd
00000050: 902d 57bd 2980 353d 4347 b93d 910f 49bc
00000060: 0cb8 923c e550 02bc c898 6f3d e2b7 5cbd
00000070: 07f4 c0bc bcb7 ad3d 3b70 e73d 4226 27bd
00000080: fdef afbd 78c3 be3c 0cad b53d 69b4 bf3d
00000090: 6cb5 f83c 8c5c af3c 2891 ca3c c5ca 8e3c
000000a0: dae4 223b 423b 913a e108 cf3d 10d1 dcbd
000000b0: f675 4d3d ce5f 8d3d 6a67 d23d a112 b13d
000000c0: e2c8 75bd 2778 c8bd c402 243d 9b62 4f3c
000000d0: eea8 9a3d 3b0c 31bc 18ec 433d 0bcc 3ebc
000000e0: 6d89 9d3d ae32 a33c 71bb 273c 82e9 833c
000000f0: a09e afbc ec70 e0bd 8987 38bd b652 6f3d
00000100: 9d99 3a3d 9902 56bd ba23 93bc 06f7 193d
00000110: 29a3 c33c fb3c 8d3d 04a8 183c 53cb 31bd
00000120: 504a 2abd 0531 16bd 6618 ec3d 002e 51bc
00000130: ae22 adbb b038 d03d 5ce2 63bc 9696 e4bd
00000140: 18b5 8fbc 65da 023c 4405 0c3d 7599 c3bb
00000150: 8429 e1bd b8db c6bc 768a caba 543a 17bb
00000160: 9905 113d a7cf a4bc bfad a13b a656 cebc
00000170: dc6e c43d c231 ffbc 851a 1cbd 6715 d03d
00000180: 1ea8 09bc 82ad 14bd fae8 efbc 3ff1 56bd
00000190: 5bcb 293d ccc3 37ba 5456 48bd 5395 9dbd
000001a0: 7131 c73c 2814 9a3d e806 3b3d c3ca 8c3c
000001b0: 5b10 bebd a3f1 e7bc a548 dc3d 0c97 333d
000001c0: 0c53 1abd 6f92 873a f5bc dcbd 7b51 633d
000001d0: a11c 213d e2e7 1bbc 568e 8b3d 2326 0e3d
000001e0: 06a3 233c c292 a73c a843 c73d 2427 b73d
000001f0: 2c14 c8bc f0c9 b7bc e652 6ebd a680 a83c
00000200: 636a c93d 85d7 953d 38ad 9a3d 4680 f6bc
00000210: faa6 b8bc 1f4a 5cbd ad8c 38bd deaf 5d3c
00000220: a18e 76bd 4f12 7cbb fcea e1bd 53d6 acbd
00000230: f9f1 843d 82fd b83d 8309 4abb d6b2 79bd
00000240: cc44 81bd 7b90 f4bc 4765 b63d 8b34 aa3d
00000250: 5e01 983c 86f3 de3c 8662 063d 272f 44bb
00000260: c3e7 ca3d 5ae9 35bc 0360 61bd 081a b13d
00000270: 6172 9fbd d3e7 0dbd 98b7 bf3d c7e6 a93d
00000280: 9db7 7cbd 77b3 6f3d 72ae 88bd 6fc5 6e3d
00000290: 3973 ca3d 7dac a53d 03b3 973c 65b0 febc
000002a0: 25d7 993b 5fc9 043d f32c bf3d cb43 4b3b
000002b0: 03d6 98bd 2f17 04bd d5b6 0bbd 2b40 ed3c
000002c0: 4b22 af3d 49cd a2bd 9630 bb3c e82e a93d
000002d0: 82c4 9cbd dc9c 83bd b128 ce3d c0ff 283c
000002e0: 4ddc 32bd 3a2c 61bd f0ff 43bd c7bc 9abd
000002f0: e42c a83d 361e c73b 4908 643c 7f4a b63d
00000300: 17d2 e5bb 3586 eebc 841c bcbc f7c9 89bd
00000310: 148a 18bd 9bce 253c ef3b a4bc 7e50 a53b
00000320: 3df6 d33d ec18 143d 19f0 513d 04ff bc3d
00000330: d1d1 eebd bbe4 c83c d57b 473d 5e35 a6bd
00000340: 2b80 083d 1c12 113c c5b4 15be b9f7 363b
00000350: 35fb d43d 1050 8cbc 6ae1 35bc fd7c 92bc
00000360: e5a3 c1bd 2ede af3b f718 9b3d 145e 05bd
00000370: f52e 80bc 03da 533d e751 b5bd 64df 923d
00000380: 49fc 6a3c 1784 f2bc fba6 acbd bc74 ea3c
00000390: 7617 93bd 26c5 6bbd cbf0 203d 6087 06be
000003a0: 445a c83c 8ec4 c93d a99e dfbc 0d42 843b
000003b0: dde8 cb3d e909 e3bd 6ab6 a13c c5e8 69bd
000003c0: 94d8 89bd 4a9c 0b3b 320e d53d 47ba 73bd
000003d0: aa82 b3bd 860a 783d 351a a03d 7cc4 c43b
000003e0: af82 813c 7c84 89bc 17aa d9bb 285a 3fbd
000003f0: 736e 93bb 0b75 8abd 16fd 693d 1f2c 8fbd

StatefulPartitionedCall/model/conv1d_1/StatefulPartitionedCall/StatefulPartitionedCall/conv1d_bias f4 [6]
-0.003055877 -0.007012092 0.0040156995 -0.008684734 0.0055570565 -0.0054151574
00000000: 1c45 48bb b1c5 e5bb 2196 833b 6a4a 0ebc
00000010: f817 b63b a271 b1bb
