AndroidApp/app/src/main/assets/model_transfer_learning/initialize.tflite (tflite, 2856 bytes, 4 tensors)

Identity_1_copy f4 [12]
00000000: 0000 0000 0000 0000 0000 0000 0000 0000
00000010: 0000 0000 0000 0000 0000 0000 0000 0000
00000020: 0000 0000 0000 0000 0000 0000 0000 0000
0.0 0.0 0.0 0.0 0.0 0.0 0.0 0.0
0.0 0.0 0.0 0.0

Identity_2_copy f4 [12, 12]
00000000: 38b3 623e 407c 7c3d 400e b13d 20f0 75bd
00000010: 3012 603e 68df 74be b01f ee3e 20df b3bd
00000020: 00b1 d23b 8011 523c 6ca6 fe3e d473 fcbe
00000030: 88f0 9c3e 7478 d9be 2084 2d3e e0c4 c33d
00000040: 68b4 e5be 98a0 93be 3021 abbe 9089 c3be
00000050: b004 4d3e 344b be3e ec1a b43e 8047 1c3e
00000060: 6432 b63e f084 5f3e b439 bc3e e07d 703d
00000070: 200e 25be 4084 c0bc 3cab f73e c042 e2be
00000080: 0027 903c 80e4 d33c 28ea 0fbe 4041 9fbd
00000090: e064 cb3e dcbb eb3e e05d 1a3e 041b fabe
000000a0: 70d2 21be 38b7 94be 303f 9e3e cc65 eabe
000000b0: 2ccb efbe f02f f1be 446e b63e 00e6 c4bc
000000c0: 1086 da3e 9463 adbe f87c d5be d021 903d
000000d0: b8cf 6b3e 3894 b83e 00a4 c1ba f4c9 febe
000000e0: 2026 6cbd a0f9 d0be 0845 4e3e 987e ecbe
000000f0: 907d ec3d 78b7 77be a099 c23d 8c52 d43e
00000100: 58d1 bdbe dc2c da3e 2086 033d d00b 4c3e
00000110: c84a 0cbe 5088 c53e b420 a2be bca8 d73e
00000120: d0a7 c73e 7015 af3d dc1a cfbe 007a 173d
00000130: 9405 af3e 4c33 a53e ec6a ad3e 9caf 9cbe
00000140: 5c51 8d3e 68c0 4dbe 0085 7ebc cc3a 83be
00000150: 1052 163e e0b6 3fbd c01f d2be f465 febe
00000160: 5054 1bbe cc75 9bbe 003a 5d3b 5475 853e
00000170: 48ac c1be 907a d2bd 345d 8cbe 00c0 9fbd
00000180: e007 dc3e f877 be3e 7059 b4be e882 09be
00000190: 4ce4 85be 4018 6dbe c4db 9f3e c0d2 153e
000001a0: 805f 89bd 2074 c6bd 884f d6be 3808 ec3e
000001b0: 8c0c f13e c8bd 78be 5cfa f4be 8022 f8bc
000001c0: a853 13be e08b 82be fc7d be3e 2006 483e
000001d0: d8c8 35be c051 f2bd 509b 823d 305c da3e
000001e0: d861 51be b84b 3cbe 28ca c6be 9032 99bd
000001f0: 1878 c23e 187d 52be 9438 893e 0c0c ce3e
00000200: 2490 c33e 2091 c83e b014 a3be 8059 4dbc
00000210: 40b2 04bd 08a6 02be 3421 c7be 40d9 b03c
00000220: f0e6 85be c0a7 3b3e 90a4 bcbd a058 cabd
00000230: c098 573e 20a1 713e a8a2 053e 50d1 b03d
0.22138679 0.06164193 0.08645296 -0.060043454 0.21881938 -0.23913348 0.4650855 -0.08782792
0.0064297915 0.012821555 0.49736345 -0.4930712 0.3065226 -0.4247471 0.16944933 0.09559035
-0.44864202 -0.2883346 -0.33423758 -0.3819089 0.2002132 0.3716675 0.3517679 0.1526165
0.3558532 0.21828055 0.36762774 0.058713794 -0.1611867 -0.023500562 0.4837283 -0.4419155
0.017596722 0.025865793 -0.14054167 -0.07776117 0.397254 0.46041763 0.15074873 -0.48848736
-0.15802932 -0.29046035 0.30907583 -0.4578079 -0.46834695 -0.47106886 0.35631 -0.024035454
0.42680407 -0.33865035 -0.41696906 0.07037699 0.23028457 0.36050582 -0.0014773607 -0.49763453
-0.057653546 -0.4081545 0.20143521 -0.46190333 0.11547387 -0.24191082 0.09501958 0.41469228
-0.3707378 0.4261235 0.032110333 0.19926381 -0.13700402 0.3858056 -0.31665576 0.42120922
0.38995218 0.08549011 -0.4045018 0.036981583 0.34183943 0.322657 0.33870637 -0.3060273
0.27601135 -0.20092928 -0.015534639 -0.25630796 0.14679742 -0.046805263 -0.41039848 -0.4968716
-0.15168881 -0.3036331 0.0033756495 0.26066077 -0.37826753 -0.10277283 -0.27414858 -0.07800293
0.42974758 0.37200904 -0.35224485 -0.13428843 -0.2615074 -0.23153782 0.31222355 0.14631176
-0.06707668 -0.09690118 -0.41857553 0.4610002 0.47079885 -0.24291146 -0.4784726 -0.030289888
-0.14387381 -0.2549734 0.37205493 0.19533587 -0.17752397 -0.11831999 0.0637728 0.42648458
-0.2044748 -0.1838826 -0.38826108 -0.07480347 0.3798225 -0.20555532 0.26800978 0.40243566
0.38195908 0.39173222 -0.3185172 -0.0125335455 -0.032396555 -0.12758648 -0.3889252 0.021587968
-0.26152754 0.1832571 -0.09211075 -0.09880185 0.21054363 0.2359662 0.1305033 0.08633673

Identity_3_copy f4 [12]
00000000: 0000 0000 0000 0000 0000 0000 0000 0000
00000010: 0000 0000 0000 0000 0000 0000 0000 0000
00000020: 0000 0000 0000 0000 0000 0000 0000 0000
0.0 0.0 0.0 0.0 0.0 0.0 0.0 0.0
0.0 0.0 0.0 0.0

Identity_copy f4 [12, 12]
00000000: a0e6 bdbd 6898 1cbe 6021 54be a04b 29bd
00000010: 687a 173e 602a 21be 9c8e b63e d832 f53e
00000020: 08cf da3e 4094 50be 80d0 c33c 583a 69be
00000030: 8c95 853e b8d7 0cbe 5cae cabe 207a f43e
00000040: 847e d33e f8ab f33e a416 8a3e b0b0 8cbd
00000050: d8c9 2b3e e402 9b3e 283e d9be c087 cf3d
00000060: f0ad 043e e8cc dd3e 487b 9c3e d0ea adbd
00000070: b84e 20be 0076 463d 3889 c7be 3073 7abe
00000080: 0072 9bbe 1471 873e b814 c2be 703c e13e
00000090: b0e1 e73d 8074 7dbe c0f7 793d 80b1 243c
000000a0: 28b7 3a3e 701e 203e 10a4 e2be b466 b33e
000000b0: bcd9 aabe d0f5 b9bd 3caf db3e bcda 833e
000000c0: 0071 803c 002d 863d b810 7bbe d0a0 49be
000000d0: 08b5 ecbe 50f7 a13d a013 103d 68f7 91be
000000e0: 40a5 c53c 648c e53e 00ed bc3b 842f 893e
000000f0: a443 e93e 4cd7 aebe 2070 a83e 8ca4 86be
00000100: 9c6e be3e 009c e43c 8c97 cb3e d0c3 04be
00000110: 0448 903e 00c0 1b39 20ba e83e 6469 e5be
00000120: f01e d23d d0b9 f2be 004c 81bc 3456 f63e
00000130: 0c99 d3be 0017 16bd c0e6 28bd 7465 8dbe
00000140: 00e8 0bbd f40b 93be a099 fa3e 2846 8ebe
00000150: 603c b5be 1475 febe 500e 4e3e fc46 e9be
00000160: 602a 613d 7021 3cbe 0048 63bd 68cd fc3e
00000170: f89c bcbe 74d8 eebe 50e9 9c3d 64fd e23e
00000180: 4442 a8be 18cc 0f3e 4800 f7be 24eb bfbe
00000190: b407 9d3e 7889 ed3e d0ea f6bd 0817 d2be
000001a0: a88a 33be 4425 ee3e 8078 f03d 0895 403e
000001b0: 00a6 dbbd 481a 6a3e e8a0 343e 20d8 0a3d
000001c0: e800 81be 2087 b7bd 5091 f83d a0c1 2fbe
000001d0: 802b 463d c082 9cbe a417 8d3e c0d1 753e
000001e0: 60d8 d8be 08df 603e 8825 a1be bc03 babe
000001f0: 54ff fbbe dc13 a73e 1022 bd3e 80af 58be
00000200: 2c1c e2be 84cd bb3e a808 093e f038 9fbd
00000210: a06f d83d 0060 9f39 3011 63be 9016 343e
00000220: 9048 fb3e 58cb ccbe 44c9 d43e f085 9f3e
00000230: 3cdb d73e c463 8fbe c83a 92be 6087 203e
-0.09272504 -0.15292513 -0.20715857 -0.041331887 0.14792788 -0.15738821 0.35655677 0.47890353
0.42736077 -0.20369053 0.023903131 -0.22776163 0.26090658 -0.13754165 -0.3958615 0.47749424
0.4130746 0.4759214 0.26970398 -0.06869638 0.16776216 0.30275643 -0.42430234 0.10133314
0.12956977 0.43320394 0.30562806 -0.084920526 -0.15655029 0.048452377 -0.38971877 -0.24458003
-0.30360413 0.2645346 -0.37906432 0.43991423 0.11322343 -0.24751472 0.06102729 0.010052085
0.18233931 0.15636611 -0.44265795 0.35039294 -0.33369243 -0.09080088 0.4290713 0.2575282
0.015678883 0.06551552 -0.24518096 -0.19690251 -0.46231866 0.07908499 0.035174966 -0.28509068
0.024126649 0.44833672 0.0057655573 0.26794064 0.45559418 -0.34148633 0.32898045 -0.26297414
0.37193763 0.027906418 0.3976406 -0.12965322 0.28179944 0.00014853477 0.45454502 -0.4480697
0.10259807 -0.4740739 -0.01578331 0.48112643 -0.41327703 -0.03664303 -0.041235685 -0.27616465
-0.0341568 -0.28720057 0.48945332 -0.277879 -0.35397625 -0.496987 0.20122647 -0.4556197
0.054972053 -0.1837213 -0.055488586 0.49375463 -0.36838508 -0.46649516 0.07661688 0.44333947
-0.32863057 0.140427 -0.48242402 -0.37484086 0.3066994 0.46393943 -0.12056506 -0.41033196
-0.17533362 0.46512806 0.117417336 0.18806851 -0.10725021 0.22861588 0.17639506 0.03389752
-0.25196004 -0.0896132 0.12137091 -0.17163706 0.04838133 -0.30568504 0.275571 0.24005795
-0.4235258 0.2196008 -0.31473947 -0.36330974 -0.49218237 0.3263234 0.3694005 -0.21160698
-0.44162118 0.36680233 0.13382208 -0.07774532 0.10568166 0.0003039837 -0.22174525 0.17586732
0.49078798 -0.3999889 0.41559803 0.31156874 0.4215945 -0.28005803 -0.28560472 0.15676641
